…
I1108 14:33:51.332119 11054 net.cpp:322] The NetState phase (0) differed from the phase (1) specified by a rule in layer loss3/top-5
I1108 14:33:51.333050 11054 net.cpp:58] Initializing net from parameters: 
name: "GoogleNet"
state {
  phase: TRAIN
  level: 0
  stage: ""
}
layer {
  name: "data"
  type: "ImageData"
  top: "data"
  top: "label"
  include {
    phase: TRAIN
  }
  transform_param {
    mirror: true
    crop_size: 224
    mean_value: 103.939
    mean_value: 116.779
    mean_value: 123.68
  }
  image_data_param {
    source: "train.list"
    batch_size: 32
    shuffle: true
    new_height: 256
    new_width: 256
    is_color: true
  }
}
layer {
  name: "conv1/7x7_s2"
  type: "Convolution"
  bottom: "data"
  top: "conv1/7x7_s2"
  param {
    lr_mult: 1
    decay_mult: 1
  }
  param {
    lr_mult: 2
    decay_mult: 0
  }
  convolution_param {
    num_output: 64
    pad: 3
    kernel_size: 7
    stride: 2
    weight_filler {
      type: "xavier"
    }
    bias_filler {
      type: "constant"
      value: 0.2
    }
  }
}
layer {
  name: "conv1/relu_7x7"
  type: "ReLU"
  bottom: "conv1/7x7_s2"
  top: "conv1/7x7_s2"
}
layer {
  name: "pool1/3x3_s2"
  type: "Pooling"
  bottom: "conv1/7x7_s2"
  top: "pool1/3x3_s2"
  pooling_param {
    pool: MAX
    kernel_size: 3
    stride: 2
  }
}
layer {
  name: "pool1/norm1"
  type: "LRN"
  bottom: "pool1/3x3_s2"
  top: "pool1/norm1"
  lrn_param {
    local_size: 5
    alpha: 0.0001
    beta: 0.75
  }
}
layer {
  name: "conv2/3x3_reduce"
  type: "Convolution"
  bottom: "pool1/norm1"
  top: "conv2/3x3_reduce"
  param {
    lr_mult: 1
    decay_mult: 1
  }
  param {
    lr_mult: 2
    decay_mult: 0
  }
  convolution_param {
    num_output: 64
    kernel_size: 1
    weight_filler {
      type: "xavier"
    }
    bias_filler {
      type: "constant"
      value: 0.2
    }
  }
}
layer {
  name: "conv2/relu_3x3_reduce"
  type: "ReLU"
  bottom: "conv2/3x3_reduce"
  top: "conv2/3x3_reduce"
}
layer {
  name: "conv2/3x3"
  type: "Convolution"
  bottom: "conv2/3x3_reduce"
  top: "conv2/3x3"
  param {
    lr_mult: 1
    decay_mult: 1
  }
  param {
    lr_mult: 2
    decay_mult: 0
  }
  convolution_param {
    num_output: 192
    pad: 1
    kernel_size: 3
    weight_filler {
      type: "xavier"
    }
    bias_filler {
      type: "constant"
      value: 0.2
    }
  }
}
layer {
  name: "conv2/relu_3x3"
  type: "ReLU"
  bottom: "conv2/3x3"
  top: "conv2/3x3"
}
layer {
  name: "conv2/norm2"
  type: "LRN"
  bottom: "conv2/3x3"
  top: "conv2/norm2"
  lrn_param {
    local_size: 5
    alpha: 0.0001
    beta: 0.75
  }
}
layer {
  name: "pool2/3x3_s2"
  type: "Pooling"
  bottom: "conv2/norm2"
  top: "pool2/3x3_s2"
  pooling_param {
    pool: MAX
    kernel_size: 3
    stride: 2
  }
}
layer {
  name: "inception_3a/1x1"
  type: "Convolution"
  bottom: "pool2/3x3_s2"
  top: "inception_3a/1x1"
  param {
    lr_mult: 1
    decay_mult: 1
  }
  param {
    lr_mult: 2
    decay_mult: 0
  }
  convolution_param {
    num_output: 64
    kernel_size: 1
    weight_filler {
      type: "xavier"
    }
    bias_filler {
      type: "constant"
      value: 0.2
    }
  }
}
layer {
  name: "inception_3a/relu_1x1"
  type: "ReLU"
  bottom: "inception_3a/1x1"
  top: "inception_3a/1x1"
}
layer {
  name: "inception_3a/3x3_reduce"
  type: "Convolution"
  bottom: "pool2/3x3_s2"
  top: "inception_3a/3x3_reduce"
  param {
    lr_mult: 1
    decay_mult: 1
  }
  param {
    lr_mult: 2
    decay_mult: 0
  }
  convolution_param {
    num_output: 96
    kernel_size: 1
    weight_filler {
      type: "xavier"
    }
    bias_filler {
      type: "constant"
      value: 0.2
    }
  }
}
layer {
  name: "inception_3a/relu_3x3_reduce"
  type: "ReLU"
  bottom: "inception_3a/3x3_reduce"
  top: "inception_3a/3x3_reduce"
}
layer {
  name: "inception_3a/3x3"
  type: "Convolution"
  bottom: "inception_3a/3x3_reduce"
  top: "inception_3a/3x3"
  param {
    lr_mult: 1
    decay_mult: 1
  }
  param {
    lr_mult: 2
    decay_mult: 0
  }
  convolution_param {
    num_output: 128
    pad: 1
    kernel_size: 3
    weight_filler {
      type: "xavier"
    }
    bias_filler {
      type: "constant"
      value: 0.2
    }
  }
}
layer {
  name: "inception_3a/relu_3x3"
  type: "ReLU"
  bottom: "inception_3a/3x3"
  top: "inception_3a/3x3"
}
layer {
  name: "inception_3a/5x5_reduce"
  type: "Convolution"
  bottom: "pool2/3x3_s2"
  top: "inception_3a/5x5_reduce"
  param {
    lr_mult: 1
    decay_mult: 1
  }
  param {
    lr_mult: 2
    decay_mult: 0
  }
  convolution_param {
    num_output: 16
    kernel_size: 1
    weight_filler {
      type: "xavier"
    }
    bias_filler {
      type: "constant"
      value: 0.2
    }
  }
}
layer {
  name: "inception_3a/relu_5x5_reduce"
  type: "ReLU"
  bottom: "inception_3a/5x5_reduce"
  top: "inception_3a/5x5_reduce"
}
layer {
  name: "inception_3a/5x5"
  type: "Convolution"
  bottom: "inception_3a/5x5_reduce"
  top: "inception_3a/5x5"
  param {
    lr_mult: 1
    decay_mult: 1
  }
  param {
    lr_mult: 2
    decay_mult: 0
  }
  convolution_param {
    num_output: 32
    pad: 2
    kernel_size: 5
    weight_filler {
      type: "xavier"
    }
    bias_filler {
      type: "constant"
      value: 0.2
    }
  }
}
layer {
  name: "inception_3a/relu_5x5"
  type: "ReLU"
  bottom: "inception_3a/5x5"
  top: "inception_3a/5x5"
}
layer {
  name: "inception_3a/pool"
  type: "Pooling"
  bottom: "pool2/3x3_s2"
  top: "inception_3a/pool"
  pooling_param {
    pool: MAX
    kernel_size: 3
    stride: 1
    pad: 1
  }
}
layer {
  name: "inception_3a/pool_proj"
  type: "Convolution"
  bottom: "inception_3a/pool"
  top: "inception_3a/pool_proj"
  param {
    lr_mult: 1
    decay_mult: 1
  }
  param {
    lr_mult: 2
    decay_mult: 0
  }
  convolution_param {
    num_output: 32
    kernel_size: 1
    weight_filler {
      type: "xavier"
    }
    bias_filler {
      type: "constant"
      value: 0.2
    }
  }
}
layer {
  name: "inception_3a/relu_pool_proj"
  type: "ReLU"
  bottom: "inception_3a/pool_proj"
  top: "inception_3a/pool_proj"
}
layer {
  name: "inception_3a/output"
  type: "Concat"
  bottom: "inception_3a/1x1"
  bottom: "inception_3a/3x3"
  bottom: "inception_3a/5x5"
  bottom: "inception_3a/pool_proj"
  top: "inception_3a/output"
}
layer {
  name: "inception_3b/1x1"
  type: "Convolution"
  bottom: "inception_3a/output"
  top: "inception_3b/1x1"
  param {
    lr_mult: 1
    decay_mult: 1
  }
  param {
    lr_mult: 2
    decay_mult: 0
  }
  convolution_param {
    num_output: 128
    kernel_size: 1
    weight_filler {
      type: "xavier"
    }
    bias_filler {
      type: "constant"
      value: 0.2
    }
  }
}
layer {
  name: "inception_3b/relu_1x1"
  type: "ReLU"
  bottom: "inception_3b/1x1"
  top: "inception_3b/1x1"
}
layer {
  name: "inception_3b/3x3_reduce"
  type: "Convolution"
  bottom: "inception_3a/output"
  top: "inception_3b/3x3_reduce"
  param {
    lr_mult: 1
    decay_mult: 1
  }
  param {
    lr_mult: 2
    decay_mult: 0
  }
  convolution_param {
    num_output: 128
    kernel_size: 1
    weight_filler {
      type: "xavier"
    }
    bias_filler {
      type: "constant"
      value: 0.2
    }
  }
}
layer {
  name: "inception_3b/relu_3x3_reduce"
  type: "ReLU"
  bottom: "inception_3b/3x3_reduce"
  top: "inception_3b/3x3_reduce"
}
layer {
  name: "inception_3b/3x3"
  type: "Convolution"
  bottom: "inception_3b/3x3_reduce"
  top: "inception_3b/3x3"
  param {
    lr_mult: 1
    decay_mult: 1
  }
  param {
    lr_mult: 2
    decay_mult: 0
  }
  convolution_param {
    num_output: 192
    pad: 1
    kernel_size: 3
    weight_filler {
      type: "xavier"
    }
    bias_filler {
      type: "constant"
      value: 0.2
    }
  }
}
layer {
  name: "inception_3b/relu_3x3"
  type: "ReLU"
  bottom: "inception_3b/3x3"
  top: "inception_3b/3x3"
}
layer {
  name: "inception_3b/5x5_reduce"
  type: "Convolution"
  bottom: "inception_3a/output"
  top: "inception_3b/5x5_reduce"
  param {
    lr_mult: 1
    decay_mult: 1
  }
  param {
    lr_mult: 2
    decay_mult: 0
  }
  convolution_param {
    num_output: 32
    kernel_size: 1
    weight_filler {
      type: "xavier"
    }
    bias_filler {
      type: "constant"
      value: 0.2
    }
  }
}
layer {
  name: "inception_3b/relu_5x5_reduce"
  type: "ReLU"
  bottom: "inception_3b/5x5_reduce"
  top: "inception_3b/5x5_reduce"
}
layer {
  name: "inception_3b/5x5"
  type: "Convolution"
  bottom: "inception_3b/5x5_reduce"
  top: "inception_3b/5x5"
  param {
    lr_mult: 1
    decay_mult: 1
  }
  param {
    lr_mult: 2
    decay_mult: 0
  }
  convolution_param {
    num_output: 96
    pad: 2
    kernel_size: 5
    weight_filler {
      type: "xavier"
    }
    bias_filler {
      type: "constant"
      value: 0.2
    }
  }
}
layer {
  name: "inception_3b/relu_5x5"
  type: "ReLU"
  bottom: "inception_3b/5x5"
  top: "inception_3b/5x5"
}
layer {
  name: "inception_3b/pool"
  type: "Pooling"
  bottom: "inception_3a/output"
  top: "inception_3b/pool"
  pooling_param {
    pool: MAX
    kernel_size: 3
    stride: 1
    pad: 1
  }
}
layer {
  name: "inception_3b/pool_proj"
  type: "Convolution"
  bottom: "inception_3b/pool"
  top: "inception_3b/pool_proj"
  param {
    lr_mult: 1
    decay_mult: 1
  }
  param {
    lr_mult: 2
    decay_mult: 0
  }
  convolution_param {
    num_output: 64
    kernel_size: 1
    weight_filler {
      type: "xavier"
    }
    bias_filler {
      type: "constant"
      value: 0.2
    }
  }
}
layer {
  name: "inception_3b/relu_pool_proj"
  type: "ReLU"
  bottom: "inception_3b/pool_proj"
  top: "inception_3b/pool_proj"
}
layer {
  name: "inception_3b/output"
  type: "Concat"
  bottom: "inception_3b/1x1"
  bottom: "inception_3b/3x3"
  bottom: "inception_3b/5x5"
  bottom: "inception_3b/pool_proj"
  top: "inception_3b/output"
}
layer {
  name: "pool3/3x3_s2"
  type: "Pooling"
  bottom: "inception_3b/output"
  top: "pool3/3x3_s2"
  pooling_param {
    pool: MAX
    kernel_size: 3
    stride: 2
  }
}
layer {
  name: "inception_4a/1x1"
  type: "Convolution"
  bottom: "pool3/3x3_s2"
  top: "inception_4a/1x1"
  param {
    lr_mult: 1
    decay_mult: 1
  }
  param {
    lr_mult: 2
    decay_mult: 0
  }
  convolution_param {
    num_output: 192
    kernel_size: 1
    weight_filler {
      type: "xavier"
    }
    bias_filler {
      type: "constant"
      value: 0.2
    }
  }
}
layer {
  name: "inception_4a/relu_1x1"
  type: "ReLU"
  bottom: "inception_4a/1x1"
  top: "inception_4a/1x1"
}
layer {
  name: "inception_4a/3x3_reduce"
  type: "Convolution"
  bottom: "pool3/3x3_s2"
  top: "inception_4a/3x3_reduce"
  param {
    lr_mult: 1
    decay_mult: 1
  }
  param {
    lr_mult: 2
    decay_mult: 0
  }
  convolution_param {
    num_output: 96
    kernel_size: 1
    weight_filler {
      type: "xavier"
    }
    bias_filler {
      type: "constant"
      value: 0.2
    }
  }
}
layer {
  name: "inception_4a/relu_3x3_reduce"
  type: "ReLU"
  bottom: "inception_4a/3x3_reduce"
  top: "inception_4a/3x3_reduce"
}
layer {
  name: "inception_4a/3x3"
  type: "Convolution"
  bottom: "inception_4a/3x3_reduce"
  top: "inception_4a/3x3"
  param {
    lr_mult: 1
    decay_mult: 1
  }
  param {
    lr_mult: 2
    decay_mult: 0
  }
  convolution_param {
    num_output: 208
    pad: 1
    kernel_size: 3
    weight_filler {
      type: "xavier"
    }
    bias_filler {
      type: "constant"
      value: 0.2
    }
  }
}
layer {
  name: "inception_4a/relu_3x3"
  type: "ReLU"
  bottom: "inception_4a/3x3"
  top: "inception_4a/3x3"
}
layer {
  name: "inception_4a/5x5_reduce"
  type: "Convolution"
  bottom: "pool3/3x3_s2"
  top: "inception_4a/5x5_reduce"
  param {
    lr_mult: 1
    decay_mult: 1
  }
  param {
    lr_mult: 2
    decay_mult: 0
  }
  convolution_param {
    num_output: 16
    kernel_size: 1
    weight_filler {
      type: "xavier"
    }
    bias_filler {
      type: "constant"
      value: 0.2
    }
  }
}
layer {
  name: "inception_4a/relu_5x5_reduce"
  type: "ReLU"
  bottom: "inception_4a/5x5_reduce"
  top: "inception_4a/5x5_reduce"
}
layer {
  name: "inception_4a/5x5"
  type: "Convolution"
  bottom: "inception_4a/5x5_reduce"
  top: "inception_4a/5x5"
  param {
    lr_mult: 1
    decay_mult: 1
  }
  param {
    lr_mult: 2
    decay_mult: 0
  }
  convolution_param {
    num_output: 48
    pad: 2
    kernel_size: 5
    weight_filler {
      type: "xavier"
    }
    bias_filler {
      type: "constant"
      value: 0.2
    }
  }
}
layer {
  name: "inception_4a/relu_5x5"
  type: "ReLU"
  bottom: "inception_4a/5x5"
  top: "inception_4a/5x5"
}
layer {
  name: "inception_4a/pool"
  type: "Pooling"
  bottom: "pool3/3x3_s2"
  top: "inception_4a/pool"
  pooling_param {
    pool: MAX
    kernel_size: 3
    stride: 1
    pad: 1
  }
}
layer {
  name: "inception_4a/pool_proj"
  type: "Convolution"
  bottom: "inception_4a/pool"
  top: "inception_4a/pool_proj"
  param {
    lr_mult: 1
    decay_mult: 1
  }
  param {
    lr_mult: 2
    decay_mult: 0
  }
  convolution_param {
    num_output: 64
    kernel_size: 1
    weight_filler {
      type: "xavier"
    }
    bias_filler {
      type: "constant"
      value: 0.2
    }
  }
}
layer {
  name: "inception_4a/relu_pool_proj"
  type: "ReLU"
  bottom: "inception_4a/pool_proj"
  top: "inception_4a/pool_proj"
}
layer {
  name: "inception_4a/output"
  type: "Concat"
  bottom: "inception_4a/1x1"
  bottom: "inception_4a/3x3"
  bottom: "inception_4a/5x5"
  bottom: "inception_4a/pool_proj"
  top: "inception_4a/output"
}
layer {
  name: "loss1/ave_pool"
  type: "Pooling"
  bottom: "inception_4a/output"
  top: "loss1/ave_pool"
  pooling_param {
    pool: AVE
    kernel_size: 5
    stride: 3
  }
}
layer {
  name: "loss1/conv"
  type: "Convolution"
  bottom: "loss1/ave_pool"
  top: "loss1/conv"
  param {
    lr_mult: 1
    decay_mult: 1
  }
  param {
    lr_mult: 2
    decay_mult: 0
  }
  convolution_param {
    num_output: 128
    kernel_size: 1
    weight_filler {
      type: "xavier"
    }
    bias_filler {
      type: "constant"
      value: 0.2
    }
  }
}
layer {
  name: "loss1/relu_conv"
  type: "ReLU"
  bottom: "loss1/conv"
  top: "loss1/conv"
}
layer {
  name: "loss1/fc"
  type: "InnerProduct"
  bottom: "loss1/conv"
  top: "loss1/fc"
  param {
    lr_mult: 1
    decay_mult: 1
  }
  param {
    lr_mult: 2
    decay_mult: 0
  }
  inner_product_param {
    num_output: 1024
    weight_filler {
      type: "xavier"
    }
    bias_filler {
      type: "constant"
      value: 0.2
    }
  }
}
layer {
  name: "loss1/relu_fc"
  type: "ReLU"
  bottom: "loss1/fc"
  top: "loss1/fc"
}
layer {
  name: "loss1/drop_fc"
  type: "Dropout"
  bottom: "loss1/fc"
  top: "loss1/fc"
  dropout_param {
    dropout_ratio: 0.7
  }
}
layer {
  name: "loss1/classifier"
  type: "InnerProduct"
  bottom: "loss1/fc"
  top: "loss1/classifier"
  param {
    lr_mult: 1
    decay_mult: 1
  }
  param {
    lr_mult: 2
    decay_mult: 0
  }
  inner_product_param {
    num_output: 100
    weight_filler {
      type: "xavier"
    }
    bias_filler {
      type: "constant"
      value: 0
    }
  }
}
layer {
  name: "loss1/loss"
  type: "SoftmaxWithLoss"
  bottom: "loss1/classifier"
  bottom: "label"
  top: "loss1/loss1"
  loss_weight: 0.3
}
layer {
  name: "inception_4b/1x1"
  type: "Convolution"
  bottom: "inception_4a/output"
  top: "inception_4b/1x1"
  param {
    lr_mult: 1
    decay_mult: 1
  }
  param {
    lr_mult: 2
    decay_mult: 0
  }
  convolution_param {
    num_output: 160
    kernel_size: 1
    weight_filler {
      type: "xavier"
    }
    bias_filler {
      type: "constant"
      value: 0.2
    }
  }
}
layer {
  name: "inception_4b/relu_1x1"
  type: "ReLU"
  bottom: "inception_4b/1x1"
  top: "inception_4b/1x1"
}
layer {
  name: "inception_4b/3x3_reduce"
  type: "Convolution"
  bottom: "inception_4a/output"
  top: "inception_4b/3x3_reduce"
  param {
    lr_mult: 1
    decay_mult: 1
  }
  param {
    lr_mult: 2
    decay_mult: 0
  }
  convolution_param {
    num_output: 112
    kernel_size: 1
    weight_filler {
      type: "xavier"
    }
    bias_filler {
      type: "constant"
      value: 0.2
    }
  }
}
layer {
  name: "inception_4b/relu_3x3_reduce"
  type: "ReLU"
  bottom: "inception_4b/3x3_reduce"
  top: "inception_4b/3x3_reduce"
}
layer {
  name: "inception_4b/3x3"
  type: "Convolution"
  bottom: "inception_4b/3x3_reduce"
  top: "inception_4b/3x3"
  param {
    lr_mult: 1
    decay_mult: 1
  }
  param {
    lr_mult: 2
    decay_mult: 0
  }
  convolution_param {
    num_output: 224
    pad: 1
    kernel_size: 3
    weight_filler {
      type: "xavier"
    }
    bias_filler {
      type: "constant"
      value: 0.2
    }
  }
}
layer {
  name: "inception_4b/relu_3x3"
  type: "ReLU"
  bottom: "inception_4b/3x3"
  top: "inception_4b/3x3"
}
layer {
  name: "inception_4b/5x5_reduce"
  type: "Convolution"
  bottom: "inception_4a/output"
  top: "inception_4b/5x5_reduce"
  param {
    lr_mult: 1
    decay_mult: 1
  }
  param {
    lr_mult: 2
    decay_mult: 0
  }
  convolution_param {
    num_output: 24
    kernel_size: 1
    weight_filler {
      type: "xavier"
    }
    bias_filler {
      type: "constant"
      value: 0.2
    }
  }
}
layer {
  name: "inception_4b/relu_5x5_reduce"
  type: "ReLU"
  bottom: "inception_4b/5x5_reduce"
  top: "inception_4b/5x5_reduce"
}
layer {
  name: "inception_4b/5x5"
  type: "Convolution"
  bottom: "inception_4b/5x5_reduce"
  top: "inception_4b/5x5"
  param {
    lr_mult: 1
    decay_mult: 1
  }
  param {
    lr_mult: 2
    decay_mult: 0
  }
  convolution_param {
    num_output: 64
    pad: 2
    kernel_size: 5
    weight_filler {
      type: "xavier"
    }
    bias_filler {
      type: "constant"
      value: 0.2
    }
  }
}
layer {
  name: "inception_4b/relu_5x5"
  type: "ReLU"
  bottom: "inception_4b/5x5"
  top: "inception_4b/5x5"
}
layer {
  name: "inception_4b/pool"
  type: "Pooling"
  bottom: "inception_4a/output"
  top: "inception_4b/pool"
  pooling_param {
    pool: MAX
    kernel_size: 3
    stride: 1
    pad: 1
  }
}
layer {
  name: "inception_4b/pool_proj"
  type: "Convolution"
  bottom: "inception_4b/pool"
  top: "inception_4b/pool_proj"
  param {
    lr_mult: 1
    decay_mult: 1
  }
  param {
    lr_mult: 2
    decay_mult: 0
  }
  convolution_param {
    num_output: 64
    kernel_size: 1
    weight_filler {
      type: "xavier"
    }
    bias_filler {
      type: "constant"
      value: 0.2
    }
  }
}
layer {
  name: "inception_4b/relu_pool_proj"
  type: "ReLU"
  bottom: "inception_4b/pool_proj"
  top: "inception_4b/pool_proj"
}
layer {
  name: "inception_4b/output"
  type: "Concat"
  bottom: "inception_4b/1x1"
  bottom: "inception_4b/3x3"
  bottom: "inception_4b/5x5"
  bottom: "inception_4b/pool_proj"
  top: "inception_4b/output"
}
layer {
  name: "inception_4c/1x1"
  type: "Convolution"
  bottom: "inception_4b/output"
  top: "inception_4c/1x1"
  param {
    lr_mult: 1
    decay_mult: 1
  }
  param {
    lr_mult: 2
    decay_mult: 0
  }
  convolution_param {
    num_output: 128
    kernel_size: 1
    weight_filler {
      type: "xavier"
    }
    bias_filler {
      type: "constant"
      value: 0.2
    }
  }
}
layer {
  name: "inception_4c/relu_1x1"
  type: "ReLU"
  bottom: "inception_4c/1x1"
  top: "inception_4c/1x1"
}
layer {
  name: "inception_4c/3x3_reduce"
  type: "Convolution"
  bottom: "inception_4b/output"
  top: "inception_4c/3x3_reduce"
  param {
    lr_mult: 1
    decay_mult: 1
  }
  param {
    lr_mult: 2
    decay_mult: 0
  }
  convolution_param {
    num_output: 128
    kernel_size: 1
    weight_filler {
      type: "xavier"
    }
    bias_filler {
      type: "constant"
      value: 0.2
    }
  }
}
layer {
  name: "inception_4c/relu_3x3_reduce"
  type: "ReLU"
  bottom: "inception_4c/3x3_reduce"
  top: "inception_4c/3x3_reduce"
}
layer {
  name: "inception_4c/3x3"
  type: "Convolution"
  bottom: "inception_4c/3x3_reduce"
  top: "inception_4c/3x3"
  param {
    lr_mult: 1
    decay_mult: 1
  }
  param {
    lr_mult: 2
    decay_mult: 0
  }
  convolution_param {
    num_output: 256
    pad: 1
    kernel_size: 3
    weight_filler {
      type: "xavier"
    }
    bias_filler {
      type: "constant"
      value: 0.2
    }
  }
}
layer {
  name: "inception_4c/relu_3x3"
  type: "ReLU"
  bottom: "inception_4c/3x3"
  top: "inception_4c/3x3"
}
layer {
  name: "inception_4c/5x5_reduce"
  type: "Convolution"
  bottom: "inception_4b/output"
  top: "inception_4c/5x5_reduce"
  param {
    lr_mult: 1
    decay_mult: 1
  }
  param {
    lr_mult: 2
    decay_mult: 0
  }
  convolution_param {
    num_output: 24
    kernel_size: 1
    weight_filler {
      type: "xavier"
    }
    bias_filler {
      type: "constant"
      value: 0.2
    }
  }
}
layer {
  name: "inception_4c/relu_5x5_reduce"
  type: "ReLU"
  bottom: "inception_4c/5x5_reduce"
  top: "inception_4c/5x5_reduce"
}
layer {
  name: "inception_4c/5x5"
  type: "Convolution"
  bottom: "inception_4c/5x5_reduce"
  top: "inception_4c/5x5"
  param {
    lr_mult: 1
    decay_mult: 1
  }
  param {
    lr_mult: 2
    decay_mult: 0
  }
  convolution_param {
    num_output: 64
    pad: 2
    kernel_size: 5
    weight_filler {
      type: "xavier"
    }
    bias_filler {
      type: "constant"
      value: 0.2
    }
  }
}
layer {
  name: "inception_4c/relu_5x5"
  type: "ReLU"
  bottom: "inception_4c/5x5"
  top: "inception_4c/5x5"
}
layer {
  name: "inception_4c/pool"
  type: "Pooling"
  bottom: "inception_4b/output"
  top: "inception_4c/pool"
  pooling_param {
    pool: MAX
    kernel_size: 3
    stride: 1
    pad: 1
  }
}
layer {
  name: "inception_4c/pool_proj"
  type: "Convolution"
  bottom: "inception_4c/pool"
  top: "inception_4c/pool_proj"
  param {
    lr_mult: 1
    decay_mult: 1
  }
  param {
    lr_mult: 2
    decay_mult: 0
  }
  convolution_param {
    num_output: 64
    kernel_size: 1
    weight_filler {
      type: "xavier"
    }
    bias_filler {
      type: "constant"
      value: 0.2
    }
  }
}
layer {
  name: "inception_4c/relu_pool_proj"
  type: "ReLU"
  bottom: "inception_4c/pool_proj"
  top: "inception_4c/pool_proj"
}
layer {
  name: "inception_4c/output"
  type: "Concat"
  bottom: "inception_4c/1x1"
  bottom: "inception_4c/3x3"
  bottom: "inception_4c/5x5"
  bottom: "inception_4c/pool_proj"
  top: "inception_4c/output"
}
layer {
  name: "inception_4d/1x1"
  type: "Convolution"
  bottom: "inception_4c/output"
  top: "inception_4d/1x1"
  param {
    lr_mult: 1
    decay_mult: 1
  }
  param {
    lr_mult: 2
    decay_mult: 0
  }
  convolution_param {
    num_output: 112
    kernel_size: 1
    weight_filler {
      type: "xavier"
    }
    bias_filler {
      type: "constant"
      value: 0.2
    }
  }
}
layer {
  name: "inception_4d/relu_1x1"
  type: "ReLU"
  bottom: "inception_4d/1x1"
  top: "inception_4d/1x1"
}
layer {
  name: "inception_4d/3x3_reduce"
  type: "Convolution"
  bottom: "inception_4c/output"
  top: "inception_4d/3x3_reduce"
  param {
    lr_mult: 1
    decay_mult: 1
  }
  param {
    lr_mult: 2
    decay_mult: 0
  }
  convolution_param {
    num_output: 144
    kernel_size: 1
    weight_filler {
      type: "xavier"
    }
    bias_filler {
      type: "constant"
      value: 0.2
    }
  }
}
layer {
  name: "inception_4d/relu_3x3_reduce"
  type: "ReLU"
  bottom: "inception_4d/3x3_reduce"
  top: "inception_4d/3x3_reduce"
}
layer {
  name: "inception_4d/3x3"
  type: "Convolution"
  bottom: "inception_4d/3x3_reduce"
  top: "inception_4d/3x3"
  param {
    lr_mult: 1
    decay_mult: 1
  }
  param {
    lr_mult: 2
    decay_mult: 0
  }
  convolution_param {
    num_output: 288
    pad: 1
    kernel_size: 3
    weight_filler {
      type: "xavier"
    }
    bias_filler {
      type: "constant"
      value: 0.2
    }
  }
}
layer {
  name: "inception_4d/relu_3x3"
  type: "ReLU"
  bottom: "inception_4d/3x3"
  top: "inception_4d/3x3"
}
layer {
  name: "inception_4d/5x5_reduce"
  type: "Convolution"
  bottom: "inception_4c/output"
  top: "inception_4d/5x5_reduce"
  param {
    lr_mult: 1
    decay_mult: 1
  }
  param {
    lr_mult: 2
    decay_mult: 0
  }
  convolution_param {
    num_output: 32
    kernel_size: 1
    weight_filler {
      type: "xavier"
    }
    bias_filler {
      type: "constant"
      value: 0.2
    }
  }
}
layer {
  name: "inception_4d/relu_5x5_reduce"
  type: "ReLU"
  bottom: "inception_4d/5x5_reduce"
  top: "inception_4d/5x5_reduce"
}
layer {
  name: "inception_4d/5x5"
  type: "Convolution"
  bottom: "inception_4d/5x5_reduce"
  top: "inception_4d/5x5"
  param {
    lr_mult: 1
    decay_mult: 1
  }
  param {
    lr_mult: 2
    decay_mult: 0
  }
  convolution_param {
    num_output: 64
    pad: 2
    kernel_size: 5
    weight_filler {
      type: "xavier"
    }
    bias_filler {
      type: "constant"
      value: 0.2
    }
  }
}
layer {
  name: "inception_4d/relu_5x5"
  type: "ReLU"
  bottom: "inception_4d/5x5"
  top: "inception_4d/5x5"
}
layer {
  name: "inception_4d/pool"
  type: "Pooling"
  bottom: "inception_4c/output"
  top: "inception_4d/pool"
  pooling_param {
    pool: MAX
    kernel_size: 3
    stride: 1
    pad: 1
  }
}
layer {
  name: "inception_4d/pool_proj"
  type: "Convolution"
  bottom: "inception_4d/pool"
  top: "inception_4d/pool_proj"
  param {
    lr_mult: 1
    decay_mult: 1
  }
  param {
    lr_mult: 2
    decay_mult: 0
  }
  convolution_param {
    num_output: 64
    kernel_size: 1
    weight_filler {
      type: "xavier"
    }
    bias_filler {
      type: "constant"
      value: 0.2
    }
  }
}
layer {
  name: "inception_4d/relu_pool_proj"
  type: "ReLU"
  bottom: "inception_4d/pool_proj"
  top: "inception_4d/pool_proj"
}
layer {
  name: "inception_4d/output"
  type: "Concat"
  bottom: "inception_4d/1x1"
  bottom: "inception_4d/3x3"
  bottom: "inception_4d/5x5"
  bottom: "inception_4d/pool_proj"
  top: "inception_4d/output"
}
layer {
  name: "loss2/ave_pool"
  type: "Pooling"
  bottom: "inception_4d/output"
  top: "loss2/ave_pool"
  pooling_param {
    pool: AVE
    kernel_size: 5
    stride: 3
  }
}
layer {
  name: "loss2/conv"
  type: "Convolution"
  bottom: "loss2/ave_pool"
  top: "loss2/conv"
  param {
    lr_mult: 1
    decay_mult: 1
  }
  param {
    lr_mult: 2
    decay_mult: 0
  }
  convolution_param {
    num_output: 128
    kernel_size: 1
    weight_filler {
      type: "xavier"
    }
    bias_filler {
      type: "constant"
      value: 0.2
    }
  }
}
layer {
  name: "loss2/relu_conv"
  type: "ReLU"
  bottom: "loss2/conv"
  top: "loss2/conv"
}
layer {
  name: "loss2/fc"
  type: "InnerProduct"
  bottom: "loss2/conv"
  top: "loss2/fc"
  param {
    lr_mult: 1
    decay_mult: 1
  }
  param {
    lr_mult: 2
    decay_mult: 0
  }
  inner_product_param {
    num_output: 1024
    weight_filler {
      type: "xavier"
    }
    bias_filler {
      type: "constant"
      value: 0.2
    }
  }
}
layer {
  name: "loss2/relu_fc"
  type: "ReLU"
  bottom: "loss2/fc"
  top: "loss2/fc"
}
layer {
  name: "loss2/drop_fc"
  type: "Dropout"
  bottom: "loss2/fc"
  top: "loss2/fc"
  dropout_param {
    dropout_ratio: 0.7
  }
}
layer {
  name: "loss2/classifier"
  type: "InnerProduct"
  bottom: "loss2/fc"
  top: "loss2/classifier"
  param {
    lr_mult: 1
    decay_mult: 1
  }
  param {
    lr_mult: 2
    decay_mult: 0
  }
  inner_product_param {
    num_output: 100
    weight_filler {
      type: "xavier"
    }
    bias_filler {
      type: "constant"
      value: 0
    }
  }
}
layer {
  name: "loss2/loss"
  type: "SoftmaxWithLoss"
  bottom: "loss2/classifier"
  bottom: "label"
  top: "loss2/loss1"
  loss_weight: 0.3
}
layer {
  name: "inception_4e/1x1"
  type: "Convolution"
  bottom: "inception_4d/output"
  top: "inception_4e/1x1"
  param {
    lr_mult: 1
    decay_mult: 1
  }
  param {
    lr_mult: 2
    decay_mult: 0
  }
  convolution_param {
    num_output: 256
    kernel_size: 1
    weight_filler {
      type: "xavier"
    }
    bias_filler {
      type: "constant"
      value: 0.2
    }
  }
}
layer {
  name: "inception_4e/relu_1x1"
  type: "ReLU"
  bottom: "inception_4e/1x1"
  top: "inception_4e/1x1"
}
layer {
  name: "inception_4e/3x3_reduce"
  type: "Convolution"
  bottom: "inception_4d/output"
  top: "inception_4e/3x3_reduce"
  param {
    lr_mult: 1
    decay_mult: 1
  }
  param {
    lr_mult: 2
    decay_mult: 0
  }
  convolution_param {
    num_output: 160
    kernel_size: 1
    weight_filler {
      type: "xavier"
    }
    bias_filler {
      type: "constant"
      value: 0.2
    }
  }
}
layer {
  name: "inception_4e/relu_3x3_reduce"
  type: "ReLU"
  bottom: "inception_4e/3x3_reduce"
  top: "inception_4e/3x3_reduce"
}
layer {
  name: "inception_4e/3x3"
  type: "Convolution"
  bottom: "inception_4e/3x3_reduce"
  top: "inception_4e/3x3"
  param {
    lr_mult: 1
    decay_mult: 1
  }
  param {
    lr_mult: 2
    decay_mult: 0
  }
  convolution_param {
    num_output: 320
    pad: 1
    kernel_size: 3
    weight_filler {
      type: "xavier"
    }
    bias_filler {
      type: "constant"
      value: 0.2
    }
  }
}
layer {
  name: "inception_4e/relu_3x3"
  type: "ReLU"
  bottom: "inception_4e/3x3"
  top: "inception_4e/3x3"
}
layer {
  name: "inception_4e/5x5_reduce"
  type: "Convolution"
  bottom: "inception_4d/output"
  top: "inception_4e/5x5_reduce"
  param {
    lr_mult: 1
    decay_mult: 1
  }
  param {
    lr_mult: 2
    decay_mult: 0
  }
  convolution_param {
    num_output: 32
    kernel_size: 1
    weight_filler {
      type: "xavier"
    }
    bias_filler {
      type: "constant"
      value: 0.2
    }
  }
}
layer {
  name: "inception_4e/relu_5x5_reduce"
  type: "ReLU"
  bottom: "inception_4e/5x5_reduce"
  top: "inception_4e/5x5_reduce"
}
layer {
  name: "inception_4e/5x5"
  type: "Convolution"
  bottom: "inception_4e/5x5_reduce"
  top: "inception_4e/5x5"
  param {
    lr_mult: 1
    decay_mult: 1
  }
  param {
    lr_mult: 2
    decay_mult: 0
  }
  convolution_param {
    num_output: 128
    pad: 2
    kernel_size: 5
    weight_filler {
      type: "xavier"
    }
    bias_filler {
      type: "constant"
      value: 0.2
    }
  }
}
layer {
  name: "inception_4e/relu_5x5"
  type: "ReLU"
  bottom: "inception_4e/5x5"
  top: "inception_4e/5x5"
}
layer {
  name: "inception_4e/pool"
  type: "Pooling"
  bottom: "inception_4d/output"
  top: "inception_
I1108 14:33:51.333861 11054 layer_factory.hpp:77] Creating layer data
I1108 14:33:51.333905 11054 net.cpp:100] Creating Layer data
I1108 14:33:51.333919 11054 net.cpp:408] data -> data
I1108 14:33:51.333950 11054 net.cpp:408] data -> label
I1108 14:33:51.334491 11054 image_data_layer.cpp:38] Opening file train.list
I1108 14:33:51.377727 11054 image_data_layer.cpp:53] Shuffling data
I1108 14:33:51.393225 11054 image_data_layer.cpp:58] A total of 128660 images.
I1108 14:33:51.406873 11054 image_data_layer.cpp:85] output data size: 32,3,224,224
I1108 14:33:51.465853 11054 net.cpp:150] Setting up data
I1108 14:33:51.465914 11054 net.cpp:157] Top shape: 32 3 224 224 (4816896)
I1108 14:33:51.465924 11054 net.cpp:157] Top shape: 32 (32)
I1108 14:33:51.465929 11054 net.cpp:165] Memory required for data: 19267712
I1108 14:33:51.465939 11054 layer_factory.hpp:77] Creating layer label_data_1_split
I1108 14:33:51.465955 11054 net.cpp:100] Creating Layer label_data_1_split
I1108 14:33:51.465963 11054 net.cpp:434] label_data_1_split <- label
I1108 14:33:51.465983 11054 net.cpp:408] label_data_1_split -> label_data_1_split_0
I1108 14:33:51.466020 11054 net.cpp:408] label_data_1_split -> label_data_1_split_1
I1108 14:33:51.466029 11054 net.cpp:408] label_data_1_split -> label_data_1_split_2
I1108 14:33:51.466097 11054 net.cpp:150] Setting up label_data_1_split
I1108 14:33:51.466107 11054 net.cpp:157] Top shape: 32 (32)
I1108 14:33:51.466112 11054 net.cpp:157] Top shape: 32 (32)
I1108 14:33:51.466119 11054 net.cpp:157] Top shape: 32 (32)
I1108 14:33:51.466122 11054 net.cpp:165] Memory required for data: 19268096
I1108 14:33:51.466127 11054 layer_factory.hpp:77] Creating layer conv1/7x7_s2
I1108 14:33:51.466151 11054 net.cpp:100] Creating Layer conv1/7x7_s2
I1108 14:33:51.466157 11054 net.cpp:434] conv1/7x7_s2 <- data
I1108 14:33:51.466166 11054 net.cpp:408] conv1/7x7_s2 -> conv1/7x7_s2
I1108 14:33:51.707828 11054 net.cpp:150] Setting up conv1/7x7_s2
I1108 14:33:51.707871 11054 net.cpp:157] Top shape: 32 64 112 112 (25690112)
I1108 14:33:51.707877 11054 net.cpp:165] Memory required for data: 122028544
I1108 14:33:51.707898 11054 layer_factory.hpp:77] Creating layer conv1/relu_7x7
I1108 14:33:51.707914 11054 net.cpp:100] Creating Layer conv1/relu_7x7
I1108 14:33:51.707921 11054 net.cpp:434] conv1/relu_7x7 <- conv1/7x7_s2
I1108 14:33:51.707931 11054 net.cpp:395] conv1/relu_7x7 -> conv1/7x7_s2 (in-place)
I1108 14:33:51.708344 11054 net.cpp:150] Setting up conv1/relu_7x7
I1108 14:33:51.708360 11054 net.cpp:157] Top shape: 32 64 112 112 (25690112)
I1108 14:33:51.708366 11054 net.cpp:165] Memory required for data: 224788992
I1108 14:33:51.708372 11054 layer_factory.hpp:77] Creating layer pool1/3x3_s2
I1108 14:33:51.708386 11054 net.cpp:100] Creating Layer pool1/3x3_s2
I1108 14:33:51.708392 11054 net.cpp:434] pool1/3x3_s2 <- conv1/7x7_s2
I1108 14:33:51.708400 11054 net.cpp:408] pool1/3x3_s2 -> pool1/3x3_s2
I1108 14:33:51.708465 11054 net.cpp:150] Setting up pool1/3x3_s2
I1108 14:33:51.708475 11054 net.cpp:157] Top shape: 32 64 56 56 (6422528)
I1108 14:33:51.708480 11054 net.cpp:165] Memory required for data: 250479104
I1108 14:33:51.708484 11054 layer_factory.hpp:77] Creating layer pool1/norm1
I1108 14:33:51.708500 11054 net.cpp:100] Creating Layer pool1/norm1
I1108 14:33:51.708505 11054 net.cpp:434] pool1/norm1 <- pool1/3x3_s2
I1108 14:33:51.708513 11054 net.cpp:408] pool1/norm1 -> pool1/norm1
I1108 14:33:51.708742 11054 net.cpp:150] Setting up pool1/norm1
I1108 14:33:51.708757 11054 net.cpp:157] Top shape: 32 64 56 56 (6422528)
I1108 14:33:51.708762 11054 net.cpp:165] Memory required for data: 276169216
I1108 14:33:51.708767 11054 layer_factory.hpp:77] Creating layer conv2/3x3_reduce
I1108 14:33:51.708782 11054 net.cpp:100] Creating Layer conv2/3x3_reduce
I1108 14:33:51.708788 11054 net.cpp:434] conv2/3x3_reduce <- pool1/norm1
I1108 14:33:51.708796 11054 net.cpp:408] conv2/3x3_reduce -> conv2/3x3_reduce
I1108 14:33:51.711246 11054 net.cpp:150] Setting up conv2/3x3_reduce
I1108 14:33:51.711267 11054 net.cpp:157] Top shape: 32 64 56 56 (6422528)
I1108 14:33:51.711273 11054 net.cpp:165] Memory required for data: 301859328
I1108 14:33:51.711285 11054 layer_factory.hpp:77] Creating layer conv2/relu_3x3_reduce
I1108 14:33:51.711293 11054 net.cpp:100] Creating Layer conv2/relu_3x3_reduce
I1108 14:33:51.711299 11054 net.cpp:434] conv2/relu_3x3_reduce <- conv2/3x3_reduce
I1108 14:33:51.711308 11054 net.cpp:395] conv2/relu_3x3_reduce -> conv2/3x3_reduce (in-place)
I1108 14:33:51.711496 11054 net.cpp:150] Setting up conv2/relu_3x3_reduce
I1108 14:33:51.711509 11054 net.cpp:157] Top shape: 32 64 56 56 (6422528)
I1108 14:33:51.711514 11054 net.cpp:165] Memory required for data: 327549440
I1108 14:33:51.711519 11054 layer_factory.hpp:77] Creating layer conv2/3x3
I1108 14:33:51.711535 11054 net.cpp:100] Creating Layer conv2/3x3
I1108 14:33:51.711541 11054 net.cpp:434] conv2/3x3 <- conv2/3x3_reduce
I1108 14:33:51.711549 11054 net.cpp:408] conv2/3x3 -> conv2/3x3
I1108 14:33:51.747910 11054 net.cpp:150] Setting up conv2/3x3
I1108 14:33:51.747932 11054 net.cpp:157] Top shape: 32 192 56 56 (19267584)
I1108 14:33:51.747946 11054 net.cpp:165] Memory required for data: 404619776
I1108 14:33:51.747972 11054 layer_factory.hpp:77] Creating layer conv2/relu_3x3
I1108 14:33:51.747980 11054 net.cpp:100] Creating Layer conv2/relu_3x3
I1108 14:33:51.747985 11054 net.cpp:434] conv2/relu_3x3 <- conv2/3x3
I1108 14:33:51.747995 11054 net.cpp:395] conv2/relu_3x3 -> conv2/3x3 (in-place)
I1108 14:33:51.748399 11054 net.cpp:150] Setting up conv2/relu_3x3
I1108 14:33:51.748416 11054 net.cpp:157] Top shape: 32 192 56 56 (19267584)
I1108 14:33:51.748421 11054 net.cpp:165] Memory required for data: 481690112
I1108 14:33:51.748426 11054 layer_factory.hpp:77] Creating layer conv2/norm2
I1108 14:33:51.748437 11054 net.cpp:100] Creating Layer conv2/norm2
I1108 14:33:51.748443 11054 net.cpp:434] conv2/norm2 <- conv2/3x3
I1108 14:33:51.748450 11054 net.cpp:408] conv2/norm2 -> conv2/norm2
I1108 14:33:51.748678 11054 net.cpp:150] Setting up conv2/norm2
I1108 14:33:51.748692 11054 net.cpp:157] Top shape: 32 192 56 56 (19267584)
I1108 14:33:51.748695 11054 net.cpp:165] Memory required for data: 558760448
I1108 14:33:51.748700 11054 layer_factory.hpp:77] Creating layer pool2/3x3_s2
I1108 14:33:51.748708 11054 net.cpp:100] Creating Layer pool2/3x3_s2
I1108 14:33:51.748713 11054 net.cpp:434] pool2/3x3_s2 <- conv2/norm2
I1108 14:33:51.748723 11054 net.cpp:408] pool2/3x3_s2 -> pool2/3x3_s2
I1108 14:33:51.748767 11054 net.cpp:150] Setting up pool2/3x3_s2
I1108 14:33:51.748780 11054 net.cpp:157] Top shape: 32 192 28 28 (4816896)
I1108 14:33:51.748783 11054 net.cpp:165] Memory required for data: 578028032
I1108 14:33:51.748787 11054 layer_factory.hpp:77] Creating layer pool2/3x3_s2_pool2/3x3_s2_0_split
I1108 14:33:51.748795 11054 net.cpp:100] Creating Layer pool2/3x3_s2_pool2/3x3_s2_0_split
I1108 14:33:51.748800 11054 net.cpp:434] pool2/3x3_s2_pool2/3x3_s2_0_split <- pool2/3x3_s2
I1108 14:33:51.748806 11054 net.cpp:408] pool2/3x3_s2_pool2/3x3_s2_0_split -> pool2/3x3_s2_pool2/3x3_s2_0_split_0
I1108 14:33:51.748816 11054 net.cpp:408] pool2/3x3_s2_pool2/3x3_s2_0_split -> pool2/3x3_s2_pool2/3x3_s2_0_split_1
I1108 14:33:51.748826 11054 net.cpp:408] pool2/3x3_s2_pool2/3x3_s2_0_split -> pool2/3x3_s2_pool2/3x3_s2_0_split_2
I1108 14:33:51.748832 11054 net.cpp:408] pool2/3x3_s2_pool2/3x3_s2_0_split -> pool2/3x3_s2_pool2/3x3_s2_0_split_3
I1108 14:33:51.748898 11054 net.cpp:150] Setting up pool2/3x3_s2_pool2/3x3_s2_0_split
I1108 14:33:51.748906 11054 net.cpp:157] Top shape: 32 192 28 28 (4816896)
I1108 14:33:51.748913 11054 net.cpp:157] Top shape: 32 192 28 28 (4816896)
I1108 14:33:51.748917 11054 net.cpp:157] Top shape: 32 192 28 28 (4816896)
I1108 14:33:51.748922 11054 net.cpp:157] Top shape: 32 192 28 28 (4816896)
I1108 14:33:51.748926 11054 net.cpp:165] Memory required for data: 655098368
I1108 14:33:51.748931 11054 layer_factory.hpp:77] Creating layer inception_3a/1x1
I1108 14:33:51.748944 11054 net.cpp:100] Creating Layer inception_3a/1x1
I1108 14:33:51.748951 11054 net.cpp:434] inception_3a/1x1 <- pool2/3x3_s2_pool2/3x3_s2_0_split_0
I1108 14:33:51.748960 11054 net.cpp:408] inception_3a/1x1 -> inception_3a/1x1
I1108 14:33:51.751441 11054 net.cpp:150] Setting up inception_3a/1x1
I1108 14:33:51.751461 11054 net.cpp:157] Top shape: 32 64 28 28 (1605632)
I1108 14:33:51.751467 11054 net.cpp:165] Memory required for data: 661520896
I1108 14:33:51.751477 11054 layer_factory.hpp:77] Creating layer inception_3a/relu_1x1
I1108 14:33:51.751487 11054 net.cpp:100] Creating Layer inception_3a/relu_1x1
I1108 14:33:51.751492 11054 net.cpp:434] inception_3a/relu_1x1 <- inception_3a/1x1
I1108 14:33:51.751499 11054 net.cpp:395] inception_3a/relu_1x1 -> inception_3a/1x1 (in-place)
I1108 14:33:51.755511 11054 net.cpp:150] Setting up inception_3a/relu_1x1
I1108 14:33:51.755528 11054 net.cpp:157] Top shape: 32 64 28 28 (1605632)
I1108 14:33:51.755533 11054 net.cpp:165] Memory required for data: 667943424
I1108 14:33:51.755538 11054 layer_factory.hpp:77] Creating layer inception_3a/3x3_reduce
I1108 14:33:51.755553 11054 net.cpp:100] Creating Layer inception_3a/3x3_reduce
I1108 14:33:51.755558 11054 net.cpp:434] inception_3a/3x3_reduce <- pool2/3x3_s2_pool2/3x3_s2_0_split_1
I1108 14:33:51.755580 11054 net.cpp:408] inception_3a/3x3_reduce -> inception_3a/3x3_reduce
I1108 14:33:51.758363 11054 net.cpp:150] Setting up inception_3a/3x3_reduce
I1108 14:33:51.758381 11054 net.cpp:157] Top shape: 32 96 28 28 (2408448)
I1108 14:33:51.758388 11054 net.cpp:165] Memory required for data: 677577216
I1108 14:33:51.758399 11054 layer_factory.hpp:77] Creating layer inception_3a/relu_3x3_reduce
I1108 14:33:51.758411 11054 net.cpp:100] Creating Layer inception_3a/relu_3x3_reduce
I1108 14:33:51.758417 11054 net.cpp:434] inception_3a/relu_3x3_reduce <- inception_3a/3x3_reduce
I1108 14:33:51.758424 11054 net.cpp:395] inception_3a/relu_3x3_reduce -> inception_3a/3x3_reduce (in-place)
I1108 14:33:51.758821 11054 net.cpp:150] Setting up inception_3a/relu_3x3_reduce
I1108 14:33:51.758837 11054 net.cpp:157] Top shape: 32 96 28 28 (2408448)
I1108 14:33:51.758842 11054 net.cpp:165] Memory required for data: 687211008
I1108 14:33:51.758847 11054 layer_factory.hpp:77] Creating layer inception_3a/3x3
I1108 14:33:51.758860 11054 net.cpp:100] Creating Layer inception_3a/3x3
I1108 14:33:51.758867 11054 net.cpp:434] inception_3a/3x3 <- inception_3a/3x3_reduce
I1108 14:33:51.758874 11054 net.cpp:408] inception_3a/3x3 -> inception_3a/3x3
I1108 14:33:51.761023 11054 net.cpp:150] Setting up inception_3a/3x3
I1108 14:33:51.761041 11054 net.cpp:157] Top shape: 32 128 28 28 (3211264)
I1108 14:33:51.761046 11054 net.cpp:165] Memory required for data: 700056064
I1108 14:33:51.761055 11054 layer_factory.hpp:77] Creating layer inception_3a/relu_3x3
I1108 14:33:51.761063 11054 net.cpp:100] Creating Layer inception_3a/relu_3x3
I1108 14:33:51.761068 11054 net.cpp:434] inception_3a/relu_3x3 <- inception_3a/3x3
I1108 14:33:51.761078 11054 net.cpp:395] inception_3a/relu_3x3 -> inception_3a/3x3 (in-place)
I1108 14:33:51.761286 11054 net.cpp:150] Setting up inception_3a/relu_3x3
I1108 14:33:51.761298 11054 net.cpp:157] Top shape: 32 128 28 28 (3211264)
I1108 14:33:51.761306 11054 net.cpp:165] Memory required for data: 712901120
I1108 14:33:51.761310 11054 layer_factory.hpp:77] Creating layer inception_3a/5x5_reduce
I1108 14:33:51.761320 11054 net.cpp:100] Creating Layer inception_3a/5x5_reduce
I1108 14:33:51.761327 11054 net.cpp:434] inception_3a/5x5_reduce <- pool2/3x3_s2_pool2/3x3_s2_0_split_2
I1108 14:33:51.761337 11054 net.cpp:408] inception_3a/5x5_reduce -> inception_3a/5x5_reduce
I1108 14:33:51.762663 11054 net.cpp:150] Setting up inception_3a/5x5_reduce
I1108 14:33:51.762681 11054 net.cpp:157] Top shape: 32 16 28 28 (401408)
I1108 14:33:51.762686 11054 net.cpp:165] Memory required for data: 714506752
I1108 14:33:51.762696 11054 layer_factory.hpp:77] Creating layer inception_3a/relu_5x5_reduce
I1108 14:33:51.762704 11054 net.cpp:100] Creating Layer inception_3a/relu_5x5_reduce
I1108 14:33:51.762709 11054 net.cpp:434] inception_3a/relu_5x5_reduce <- inception_3a/5x5_reduce
I1108 14:33:51.762718 11054 net.cpp:395] inception_3a/relu_5x5_reduce -> inception_3a/5x5_reduce (in-place)
I1108 14:33:51.763118 11054 net.cpp:150] Setting up inception_3a/relu_5x5_reduce
I1108 14:33:51.763134 11054 net.cpp:157] Top shape: 32 16 28 28 (401408)
I1108 14:33:51.763139 11054 net.cpp:165] Memory required for data: 716112384
I1108 14:33:51.763144 11054 layer_factory.hpp:77] Creating layer inception_3a/5x5
I1108 14:33:51.763157 11054 net.cpp:100] Creating Layer inception_3a/5x5
I1108 14:33:51.763164 11054 net.cpp:434] inception_3a/5x5 <- inception_3a/5x5_reduce
I1108 14:33:51.763173 11054 net.cpp:408] inception_3a/5x5 -> inception_3a/5x5
I1108 14:33:51.764749 11054 net.cpp:150] Setting up inception_3a/5x5
I1108 14:33:51.764766 11054 net.cpp:157] Top shape: 32 32 28 28 (802816)
I1108 14:33:51.764771 11054 net.cpp:165] Memory required for data: 719323648
I1108 14:33:51.764780 11054 layer_factory.hpp:77] Creating layer inception_3a/relu_5x5
I1108 14:33:51.764791 11054 net.cpp:100] Creating Layer inception_3a/relu_5x5
I1108 14:33:51.764796 11054 net.cpp:434] inception_3a/relu_5x5 <- inception_3a/5x5
I1108 14:33:51.764808 11054 net.cpp:395] inception_3a/relu_5x5 -> inception_3a/5x5 (in-place)
I1108 14:33:51.765219 11054 net.cpp:150] Setting up inception_3a/relu_5x5
I1108 14:33:51.765235 11054 net.cpp:157] Top shape: 32 32 28 28 (802816)
I1108 14:33:51.765240 11054 net.cpp:165] Memory required for data: 722534912
I1108 14:33:51.765245 11054 layer_factory.hpp:77] Creating layer inception_3a/pool
I1108 14:33:51.765255 11054 net.cpp:100] Creating Layer inception_3a/pool
I1108 14:33:51.765260 11054 net.cpp:434] inception_3a/pool <- pool2/3x3_s2_pool2/3x3_s2_0_split_3
I1108 14:33:51.765269 11054 net.cpp:408] inception_3a/pool -> inception_3a/pool
I1108 14:33:51.765323 11054 net.cpp:150] Setting up inception_3a/pool
I1108 14:33:51.765333 11054 net.cpp:157] Top shape: 32 192 28 28 (4816896)
I1108 14:33:51.765337 11054 net.cpp:165] Memory required for data: 741802496
I1108 14:33:51.765342 11054 layer_factory.hpp:77] Creating layer inception_3a/pool_proj
I1108 14:33:51.765357 11054 net.cpp:100] Creating Layer inception_3a/pool_proj
I1108 14:33:51.765362 11054 net.cpp:434] inception_3a/pool_proj <- inception_3a/pool
I1108 14:33:51.765372 11054 net.cpp:408] inception_3a/pool_proj -> inception_3a/pool_proj
I1108 14:33:51.766681 11054 net.cpp:150] Setting up inception_3a/pool_proj
I1108 14:33:51.766700 11054 net.cpp:157] Top shape: 32 32 28 28 (802816)
I1108 14:33:51.766705 11054 net.cpp:165] Memory required for data: 745013760
I1108 14:33:51.766719 11054 layer_factory.hpp:77] Creating layer inception_3a/relu_pool_proj
I1108 14:33:51.766727 11054 net.cpp:100] Creating Layer inception_3a/relu_pool_proj
I1108 14:33:51.766733 11054 net.cpp:434] inception_3a/relu_pool_proj <- inception_3a/pool_proj
I1108 14:33:51.766741 11054 net.cpp:395] inception_3a/relu_pool_proj -> inception_3a/pool_proj (in-place)
I1108 14:33:51.766939 11054 net.cpp:150] Setting up inception_3a/relu_pool_proj
I1108 14:33:51.766952 11054 net.cpp:157] Top shape: 32 32 28 28 (802816)
I1108 14:33:51.766957 11054 net.cpp:165] Memory required for data: 748225024
I1108 14:33:51.766962 11054 layer_factory.hpp:77] Creating layer inception_3a/output
I1108 14:33:51.766971 11054 net.cpp:100] Creating Layer inception_3a/output
I1108 14:33:51.766976 11054 net.cpp:434] inception_3a/output <- inception_3a/1x1
I1108 14:33:51.766983 11054 net.cpp:434] inception_3a/output <- inception_3a/3x3
I1108 14:33:51.766988 11054 net.cpp:434] inception_3a/output <- inception_3a/5x5
I1108 14:33:51.766993 11054 net.cpp:434] inception_3a/output <- inception_3a/pool_proj
I1108 14:33:51.767004 11054 net.cpp:408] inception_3a/output -> inception_3a/output
I1108 14:33:51.767038 11054 net.cpp:150] Setting up inception_3a/output
I1108 14:33:51.767046 11054 net.cpp:157] Top shape: 32 256 28 28 (6422528)
I1108 14:33:51.767051 11054 net.cpp:165] Memory required for data: 773915136
I1108 14:33:51.767055 11054 layer_factory.hpp:77] Creating layer inception_3a/output_inception_3a/output_0_split
I1108 14:33:51.767066 11054 net.cpp:100] Creating Layer inception_3a/output_inception_3a/output_0_split
I1108 14:33:51.767071 11054 net.cpp:434] inception_3a/output_inception_3a/output_0_split <- inception_3a/output
I1108 14:33:51.767077 11054 net.cpp:408] inception_3a/output_inception_3a/output_0_split -> inception_3a/output_inception_3a/output_0_split_0
I1108 14:33:51.767086 11054 net.cpp:408] inception_3a/output_inception_3a/output_0_split -> inception_3a/output_inception_3a/output_0_split_1
I1108 14:33:51.767096 11054 net.cpp:408] inception_3a/output_inception_3a/output_0_split -> inception_3a/output_inception_3a/output_0_split_2
I1108 14:33:51.767103 11054 net.cpp:408] inception_3a/output_inception_3a/output_0_split -> inception_3a/output_inception_3a/output_0_split_3
I1108 14:33:51.767169 11054 net.cpp:150] Setting up inception_3a/output_inception_3a/output_0_split
I1108 14:33:51.767179 11054 net.cpp:157] Top shape: 32 256 28 28 (6422528)
I1108 14:33:51.767184 11054 net.cpp:157] Top shape: 32 256 28 28 (6422528)
I1108 14:33:51.767189 11054 net.cpp:157] Top shape: 32 256 28 28 (6422528)
I1108 14:33:51.767202 11054 net.cpp:157] Top shape: 32 256 28 28 (6422528)
I1108 14:33:51.767216 11054 net.cpp:165] Memory required for data: 876675584
I1108 14:33:51.767221 11054 layer_factory.hpp:77] Creating layer inception_3b/1x1
I1108 14:33:51.767233 11054 net.cpp:100] Creating Layer inception_3b/1x1
I1108 14:33:51.767240 11054 net.cpp:434] inception_3b/1x1 <- inception_3a/output_inception_3a/output_0_split_0
I1108 14:33:51.767252 11054 net.cpp:408] inception_3b/1x1 -> inception_3b/1x1
I1108 14:33:51.768776 11054 net.cpp:150] Setting up inception_3b/1x1
I1108 14:33:51.768795 11054 net.cpp:157] Top shape: 32 128 28 28 (3211264)
I1108 14:33:51.768800 11054 net.cpp:165] Memory required for data: 889520640
I1108 14:33:51.768808 11054 layer_factory.hpp:77] Creating layer inception_3b/relu_1x1
I1108 14:33:51.768816 11054 net.cpp:100] Creating Layer inception_3b/relu_1x1
I1108 14:33:51.768822 11054 net.cpp:434] inception_3b/relu_1x1 <- inception_3b/1x1
I1108 14:33:51.768829 11054 net.cpp:395] inception_3b/relu_1x1 -> inception_3b/1x1 (in-place)
I1108 14:33:51.769235 11054 net.cpp:150] Setting up inception_3b/relu_1x1
I1108 14:33:51.769251 11054 net.cpp:157] Top shape: 32 128 28 28 (3211264)
I1108 14:33:51.769255 11054 net.cpp:165] Memory required for data: 902365696
I1108 14:33:51.769261 11054 layer_factory.hpp:77] Creating layer inception_3b/3x3_reduce
I1108 14:33:51.769274 11054 net.cpp:100] Creating Layer inception_3b/3x3_reduce
I1108 14:33:51.769280 11054 net.cpp:434] inception_3b/3x3_reduce <- inception_3a/output_inception_3a/output_0_split_1
I1108 14:33:51.769301 11054 net.cpp:408] inception_3b/3x3_reduce -> inception_3b/3x3_reduce
I1108 14:33:51.770638 11054 net.cpp:150] Setting up inception_3b/3x3_reduce
I1108 14:33:51.770658 11054 net.cpp:157] Top shape: 32 128 28 28 (3211264)
I1108 14:33:51.770663 11054 net.cpp:165] Memory required for data: 915210752
I1108 14:33:51.770673 11054 layer_factory.hpp:77] Creating layer inception_3b/relu_3x3_reduce
I1108 14:33:51.770680 11054 net.cpp:100] Creating Layer inception_3b/relu_3x3_reduce
I1108 14:33:51.770686 11054 net.cpp:434] inception_3b/relu_3x3_reduce <- inception_3b/3x3_reduce
I1108 14:33:51.770694 11054 net.cpp:395] inception_3b/relu_3x3_reduce -> inception_3b/3x3_reduce (in-place)
I1108 14:33:51.771095 11054 net.cpp:150] Setting up inception_3b/relu_3x3_reduce
I1108 14:33:51.771109 11054 net.cpp:157] Top shape: 32 128 28 28 (3211264)
I1108 14:33:51.771114 11054 net.cpp:165] Memory required for data: 928055808
I1108 14:33:51.771119 11054 layer_factory.hpp:77] Creating layer inception_3b/3x3
I1108 14:33:51.771137 11054 net.cpp:100] Creating Layer inception_3b/3x3
I1108 14:33:51.771143 11054 net.cpp:434] inception_3b/3x3 <- inception_3b/3x3_reduce
I1108 14:33:51.771152 11054 net.cpp:408] inception_3b/3x3 -> inception_3b/3x3
I1108 14:33:51.775305 11054 net.cpp:150] Setting up inception_3b/3x3
I1108 14:33:51.775326 11054 net.cpp:157] Top shape: 32 192 28 28 (4816896)
I1108 14:33:51.775332 11054 net.cpp:165] Memory required for data: 947323392
I1108 14:33:51.775341 11054 layer_factory.hpp:77] Creating layer inception_3b/relu_3x3
I1108 14:33:51.775349 11054 net.cpp:100] Creating Layer inception_3b/relu_3x3
I1108 14:33:51.775355 11054 net.cpp:434] inception_3b/relu_3x3 <- inception_3b/3x3
I1108 14:33:51.775363 11054 net.cpp:395] inception_3b/relu_3x3 -> inception_3b/3x3 (in-place)
I1108 14:33:51.775573 11054 net.cpp:150] Setting up inception_3b/relu_3x3
I1108 14:33:51.775585 11054 net.cpp:157] Top shape: 32 192 28 28 (4816896)
I1108 14:33:51.775590 11054 net.cpp:165] Memory required for data: 966590976
I1108 14:33:51.775595 11054 layer_factory.hpp:77] Creating layer inception_3b/5x5_reduce
I1108 14:33:51.775607 11054 net.cpp:100] Creating Layer inception_3b/5x5_reduce
I1108 14:33:51.775614 11054 net.cpp:434] inception_3b/5x5_reduce <- inception_3a/output_inception_3a/output_0_split_2
I1108 14:33:51.775624 11054 net.cpp:408] inception_3b/5x5_reduce -> inception_3b/5x5_reduce
I1108 14:33:51.776964 11054 net.cpp:150] Setting up inception_3b/5x5_reduce
I1108 14:33:51.776984 11054 net.cpp:157] Top shape: 32 32 28 28 (802816)
I1108 14:33:51.776994 11054 net.cpp:165] Memory required for data: 969802240
I1108 14:33:51.777012 11054 layer_factory.hpp:77] Creating layer inception_3b/relu_5x5_reduce
I1108 14:33:51.777021 11054 net.cpp:100] Creating Layer inception_3b/relu_5x5_reduce
I1108 14:33:51.777027 11054 net.cpp:434] inception_3b/relu_5x5_reduce <- inception_3b/5x5_reduce
I1108 14:33:51.777034 11054 net.cpp:395] inception_3b/relu_5x5_reduce -> inception_3b/5x5_reduce (in-place)
I1108 14:33:51.777449 11054 net.cpp:150] Setting up inception_3b/relu_5x5_reduce
I1108 14:33:51.777468 11054 net.cpp:157] Top shape: 32 32 28 28 (802816)
I1108 14:33:51.777473 11054 net.cpp:165] Memory required for data: 973013504
I1108 14:33:51.777479 11054 layer_factory.hpp:77] Creating layer inception_3b/5x5
I1108 14:33:51.777492 11054 net.cpp:100] Creating Layer inception_3b/5x5
I1108 14:33:51.777498 11054 net.cpp:434] inception_3b/5x5 <- inception_3b/5x5_reduce
I1108 14:33:51.777506 11054 net.cpp:408] inception_3b/5x5 -> inception_3b/5x5
I1108 14:33:51.780344 11054 net.cpp:150] Setting up inception_3b/5x5
I1108 14:33:51.780362 11054 net.cpp:157] Top shape: 32 96 28 28 (2408448)
I1108 14:33:51.780369 11054 net.cpp:165] Memory required for data: 982647296
I1108 14:33:51.780377 11054 layer_factory.hpp:77] Creating layer inception_3b/relu_5x5
I1108 14:33:51.780388 11054 net.cpp:100] Creating Layer inception_3b/relu_5x5
I1108 14:33:51.780395 11054 net.cpp:434] inception_3b/relu_5x5 <- inception_3b/5x5
I1108 14:33:51.780401 11054 net.cpp:395] inception_3b/relu_5x5 -> inception_3b/5x5 (in-place)
I1108 14:33:51.780822 11054 net.cpp:150] Setting up inception_3b/relu_5x5
I1108 14:33:51.780838 11054 net.cpp:157] Top shape: 32 96 28 28 (2408448)
I1108 14:33:51.780843 11054 net.cpp:165] Memory required for data: 992281088
I1108 14:33:51.780848 11054 layer_factory.hpp:77] Creating layer inception_3b/pool
I1108 14:33:51.780856 11054 net.cpp:100] Creating Layer inception_3b/pool
I1108 14:33:51.780861 11054 net.cpp:434] inception_3b/pool <- inception_3a/output_inception_3a/output_0_split_3
I1108 14:33:51.780869 11054 net.cpp:408] inception_3b/pool -> inception_3b/pool
I1108 14:33:51.780920 11054 net.cpp:150] Setting up inception_3b/pool
I1108 14:33:51.780930 11054 net.cpp:157] Top shape: 32 256 28 28 (6422528)
I1108 14:33:51.780933 11054 net.cpp:165] Memory required for data: 1017971200
I1108 14:33:51.780938 11054 layer_factory.hpp:77] Creating layer inception_3b/pool_proj
I1108 14:33:51.780953 11054 net.cpp:100] Creating Layer inception_3b/pool_proj
I1108 14:33:51.780959 11054 net.cpp:434] inception_3b/pool_proj <- inception_3b/pool
I1108 14:33:51.780969 11054 net.cpp:408] inception_3b/pool_proj -> inception_3b/pool_proj
I1108 14:33:51.782379 11054 net.cpp:150] Setting up inception_3b/pool_proj
I1108 14:33:51.782399 11054 net.cpp:157] Top shape: 32 64 28 28 (1605632)
I1108 14:33:51.782405 11054 net.cpp:165] Memory required for data: 1024393728
I1108 14:33:51.782414 11054 layer_factory.hpp:77] Creating layer inception_3b/relu_pool_proj
I1108 14:33:51.782423 11054 net.cpp:100] Creating Layer inception_3b/relu_pool_proj
I1108 14:33:51.782428 11054 net.cpp:434] inception_3b/relu_pool_proj <- inception_3b/pool_proj
I1108 14:33:51.782435 11054 net.cpp:395] inception_3b/relu_pool_proj -> inception_3b/pool_proj (in-place)
I1108 14:33:51.782637 11054 net.cpp:150] Setting up inception_3b/relu_pool_proj
I1108 14:33:51.782649 11054 net.cpp:157] Top shape: 32 64 28 28 (1605632)
I1108 14:33:51.782655 11054 net.cpp:165] Memory required for data: 1030816256
I1108 14:33:51.782660 11054 layer_factory.hpp:77] Creating layer inception_3b/output
I1108 14:33:51.782666 11054 net.cpp:100] Creating Layer inception_3b/output
I1108 14:33:51.782672 11054 net.cpp:434] inception_3b/output <- inception_3b/1x1
I1108 14:33:51.782678 11054 net.cpp:434] inception_3b/output <- inception_3b/3x3
I1108 14:33:51.782685 11054 net.cpp:434] inception_3b/output <- inception_3b/5x5
I1108 14:33:51.782690 11054 net.cpp:434] inception_3b/output <- inception_3b/pool_proj
I1108 14:33:51.782698 11054 net.cpp:408] inception_3b/output -> inception_3b/output
I1108 14:33:51.782745 11054 net.cpp:150] Setting up inception_3b/output
I1108 14:33:51.782754 11054 net.cpp:157] Top shape: 32 480 28 28 (12042240)
I1108 14:33:51.782759 11054 net.cpp:165] Memory required for data: 1078985216
I1108 14:33:51.782763 11054 layer_factory.hpp:77] Creating layer pool3/3x3_s2
I1108 14:33:51.782773 11054 net.cpp:100] Creating Layer pool3/3x3_s2
I1108 14:33:51.782778 11054 net.cpp:434] pool3/3x3_s2 <- inception_3b/output
I1108 14:33:51.782785 11054 net.cpp:408] pool3/3x3_s2 -> pool3/3x3_s2
I1108 14:33:51.782831 11054 net.cpp:150] Setting up pool3/3x3_s2
I1108 14:33:51.782840 11054 net.cpp:157] Top shape: 32 480 14 14 (3010560)
I1108 14:33:51.782845 11054 net.cpp:165] Memory required for data: 1091027456
I1108 14:33:51.782850 11054 layer_factory.hpp:77] Creating layer pool3/3x3_s2_pool3/3x3_s2_0_split
I1108 14:33:51.782856 11054 net.cpp:100] Creating Layer pool3/3x3_s2_pool3/3x3_s2_0_split
I1108 14:33:51.782861 11054 net.cpp:434] pool3/3x3_s2_pool3/3x3_s2_0_split <- pool3/3x3_s2
I1108 14:33:51.782869 11054 net.cpp:408] pool3/3x3_s2_pool3/3x3_s2_0_split -> pool3/3x3_s2_pool3/3x3_s2_0_split_0
I1108 14:33:51.782877 11054 net.cpp:408] pool3/3x3_s2_pool3/3x3_s2_0_split -> pool3/3x3_s2_pool3/3x3_s2_0_split_1
I1108 14:33:51.782886 11054 net.cpp:408] pool3/3x3_s2_pool3/3x3_s2_0_split -> pool3/3x3_s2_pool3/3x3_s2_0_split_2
I1108 14:33:51.782892 11054 net.cpp:408] pool3/3x3_s2_pool3/3x3_s2_0_split -> pool3/3x3_s2_pool3/3x3_s2_0_split_3
I1108 14:33:51.782961 11054 net.cpp:150] Setting up pool3/3x3_s2_pool3/3x3_s2_0_split
I1108 14:33:51.782969 11054 net.cpp:157] Top shape: 32 480 14 14 (3010560)
I1108 14:33:51.782975 11054 net.cpp:157] Top shape: 32 480 14 14 (3010560)
I1108 14:33:51.782980 11054 net.cpp:157] Top shape: 32 480 14 14 (3010560)
I1108 14:33:51.782985 11054 net.cpp:157] Top shape: 32 480 14 14 (3010560)
I1108 14:33:51.782989 11054 net.cpp:165] Memory required for data: 1139196416
I1108 14:33:51.782994 11054 layer_factory.hpp:77] Creating layer inception_4a/1x1
I1108 14:33:51.783006 11054 net.cpp:100] Creating Layer inception_4a/1x1
I1108 14:33:51.783011 11054 net.cpp:434] inception_4a/1x1 <- pool3/3x3_s2_pool3/3x3_s2_0_split_0
I1108 14:33:51.783021 11054 net.cpp:408] inception_4a/1x1 -> inception_4a/1x1
I1108 14:33:51.785471 11054 net.cpp:150] Setting up inception_4a/1x1
I1108 14:33:51.785492 11054 net.cpp:157] Top shape: 32 192 14 14 (1204224)
I1108 14:33:51.785498 11054 net.cpp:165] Memory required for data: 1144013312
I1108 14:33:51.785507 11054 layer_factory.hpp:77] Creating layer inception_4a/relu_1x1
I1108 14:33:51.785516 11054 net.cpp:100] Creating Layer inception_4a/relu_1x1
I1108 14:33:51.785521 11054 net.cpp:434] inception_4a/relu_1x1 <- inception_4a/1x1
I1108 14:33:51.785528 11054 net.cpp:395] inception_4a/relu_1x1 -> inception_4a/1x1 (in-place)
I1108 14:33:51.785938 11054 net.cpp:150] Setting up inception_4a/relu_1x1
I1108 14:33:51.785954 11054 net.cpp:157] Top shape: 32 192 14 14 (1204224)
I1108 14:33:51.785959 11054 net.cpp:165] Memory required for data: 1148830208
I1108 14:33:51.785964 11054 layer_factory.hpp:77] Creating layer inception_4a/3x3_reduce
I1108 14:33:51.785977 11054 net.cpp:100] Creating Layer inception_4a/3x3_reduce
I1108 14:33:51.785984 11054 net.cpp:434] inception_4a/3x3_reduce <- pool3/3x3_s2_pool3/3x3_s2_0_split_1
I1108 14:33:51.785992 11054 net.cpp:408] inception_4a/3x3_reduce -> inception_4a/3x3_reduce
I1108 14:33:51.787480 11054 net.cpp:150] Setting up inception_4a/3x3_reduce
I1108 14:33:51.787502 11054 net.cpp:157] Top shape: 32 96 14 14 (602112)
I1108 14:33:51.787506 11054 net.cpp:165] Memory required for data: 1151238656
I1108 14:33:51.787524 11054 layer_factory.hpp:77] Creating layer inception_4a/relu_3x3_reduce
I1108 14:33:51.787536 11054 net.cpp:100] Creating Layer inception_4a/relu_3x3_reduce
I1108 14:33:51.787542 11054 net.cpp:434] inception_4a/relu_3x3_reduce <- inception_4a/3x3_reduce
I1108 14:33:51.787549 11054 net.cpp:395] inception_4a/relu_3x3_reduce -> inception_4a/3x3_reduce (in-place)
I1108 14:33:51.787957 11054 net.cpp:150] Setting up inception_4a/relu_3x3_reduce
I1108 14:33:51.787983 11054 net.cpp:157] Top shape: 32 96 14 14 (602112)
I1108 14:33:51.787988 11054 net.cpp:165] Memory required for data: 1153647104
I1108 14:33:51.787993 11054 layer_factory.hpp:77] Creating layer inception_4a/3x3
I1108 14:33:51.788007 11054 net.cpp:100] Creating Layer inception_4a/3x3
I1108 14:33:51.788012 11054 net.cpp:434] inception_4a/3x3 <- inception_4a/3x3_reduce
I1108 14:33:51.788022 11054 net.cpp:408] inception_4a/3x3 -> inception_4a/3x3
I1108 14:33:51.791898 11054 net.cpp:150] Setting up inception_4a/3x3
I1108 14:33:51.791918 11054 net.cpp:157] Top shape: 32 208 14 14 (1304576)
I1108 14:33:51.791923 11054 net.cpp:165] Memory required for data: 1158865408
I1108 14:33:51.791931 11054 layer_factory.hpp:77] Creating layer inception_4a/relu_3x3
I1108 14:33:51.791941 11054 net.cpp:100] Creating Layer inception_4a/relu_3x3
I1108 14:33:51.791947 11054 net.cpp:434] inception_4a/relu_3x3 <- inception_4a/3x3
I1108 14:33:51.791954 11054 net.cpp:395] inception_4a/relu_3x3 -> inception_4a/3x3 (in-place)
I1108 14:33:51.792155 11054 net.cpp:150] Setting up inception_4a/relu_3x3
I1108 14:33:51.792167 11054 net.cpp:157] Top shape: 32 208 14 14 (1304576)
I1108 14:33:51.792172 11054 net.cpp:165] Memory required for data: 1164083712
I1108 14:33:51.792177 11054 layer_factory.hpp:77] Creating layer inception_4a/5x5_reduce
I1108 14:33:51.792193 11054 net.cpp:100] Creating Layer inception_4a/5x5_reduce
I1108 14:33:51.792199 11054 net.cpp:434] inception_4a/5x5_reduce <- pool3/3x3_s2_pool3/3x3_s2_0_split_2
I1108 14:33:51.792210 11054 net.cpp:408] inception_4a/5x5_reduce -> inception_4a/5x5_reduce
I1108 14:33:51.793577 11054 net.cpp:150] Setting up inception_4a/5x5_reduce
I1108 14:33:51.793594 11054 net.cpp:157] Top shape: 32 16 14 14 (100352)
I1108 14:33:51.793599 11054 net.cpp:165] Memory required for data: 1164485120
I1108 14:33:51.793608 11054 layer_factory.hpp:77] Creating layer inception_4a/relu_5x5_reduce
I1108 14:33:51.793618 11054 net.cpp:100] Creating Layer inception_4a/relu_5x5_reduce
I1108 14:33:51.793624 11054 net.cpp:434] inception_4a/relu_5x5_reduce <- inception_4a/5x5_reduce
I1108 14:33:51.793632 11054 net.cpp:395] inception_4a/relu_5x5_reduce -> inception_4a/5x5_reduce (in-place)
I1108 14:33:51.794034 11054 net.cpp:150] Setting up inception_4a/relu_5x5_reduce
I1108 14:33:51.794049 11054 net.cpp:157] Top shape: 32 16 14 14 (100352)
I1108 14:33:51.794054 11054 net.cpp:165] Memory required for data: 1164886528
I1108 14:33:51.794059 11054 layer_factory.hpp:77] Creating layer inception_4a/5x5
I1108 14:33:51.794075 11054 net.cpp:100] Creating Layer inception_4a/5x5
I1108 14:33:51.794080 11054 net.cpp:434] inception_4a/5x5 <- inception_4a/5x5_reduce
I1108 14:33:51.794088 11054 net.cpp:408] inception_4a/5x5 -> inception_4a/5x5
I1108 14:33:51.795353 11054 net.cpp:150] Setting up inception_4a/5x5
I1108 14:33:51.795373 11054 net.cpp:157] Top shape: 32 48 14 14 (301056)
I1108 14:33:51.795379 11054 net.cpp:165] Memory required for data: 1166090752
I1108 14:33:51.795387 11054 layer_factory.hpp:77] Creating layer inception_4a/relu_5x5
I1108 14:33:51.795395 11054 net.cpp:100] Creating Layer inception_4a/relu_5x5
I1108 14:33:51.795402 11054 net.cpp:434] inception_4a/relu_5x5 <- inception_4a/5x5
I1108 14:33:51.795408 11054 net.cpp:395] inception_4a/relu_5x5 -> inception_4a/5x5 (in-place)
I1108 14:33:51.795814 11054 net.cpp:150] Setting up inception_4a/relu_5x5
I1108 14:33:51.795830 11054 net.cpp:157] Top shape: 32 48 14 14 (301056)
I1108 14:33:51.795835 11054 net.cpp:165] Memory required for data: 1167294976
I1108 14:33:51.795840 11054 layer_factory.hpp:77] Creating layer inception_4a/pool
I1108 14:33:51.795848 11054 net.cpp:100] Creating Layer inception_4a/pool
I1108 14:33:51.795853 11054 net.cpp:434] inception_4a/pool <- pool3/3x3_s2_pool3/3x3_s2_0_split_3
I1108 14:33:51.795861 11054 net.cpp:408] inception_4a/pool -> inception_4a/pool
I1108 14:33:51.795919 11054 net.cpp:150] Setting up inception_4a/pool
I1108 14:33:51.795929 11054 net.cpp:157] Top shape: 32 480 14 14 (3010560)
I1108 14:33:51.795938 11054 net.cpp:165] Memory required for data: 1179337216
I1108 14:33:51.795950 11054 layer_factory.hpp:77] Creating layer inception_4a/pool_proj
I1108 14:33:51.795964 11054 net.cpp:100] Creating Layer inception_4a/pool_proj
I1108 14:33:51.795970 11054 net.cpp:434] inception_4a/pool_proj <- inception_4a/pool
I1108 14:33:51.795979 11054 net.cpp:408] inception_4a/pool_proj -> inception_4a/pool_proj
I1108 14:33:51.797525 11054 net.cpp:150] Setting up inception_4a/pool_proj
I1108 14:33:51.797546 11054 net.cpp:157] Top shape: 32 64 14 14 (401408)
I1108 14:33:51.797551 11054 net.cpp:165] Memory required for data: 1180942848
I1108 14:33:51.797560 11054 layer_factory.hpp:77] Creating layer inception_4a/relu_pool_proj
I1108 14:33:51.797569 11054 net.cpp:100] Creating Layer inception_4a/relu_pool_proj
I1108 14:33:51.797574 11054 net.cpp:434] inception_4a/relu_pool_proj <- inception_4a/pool_proj
I1108 14:33:51.797581 11054 net.cpp:395] inception_4a/relu_pool_proj -> inception_4a/pool_proj (in-place)
I1108 14:33:51.797785 11054 net.cpp:150] Setting up inception_4a/relu_pool_proj
I1108 14:33:51.797797 11054 net.cpp:157] Top shape: 32 64 14 14 (401408)
I1108 14:33:51.797802 11054 net.cpp:165] Memory required for data: 1182548480
I1108 14:33:51.797811 11054 layer_factory.hpp:77] Creating layer inception_4a/output
I1108 14:33:51.797818 11054 net.cpp:100] Creating Layer inception_4a/output
I1108 14:33:51.797824 11054 net.cpp:434] inception_4a/output <- inception_4a/1x1
I1108 14:33:51.797832 11054 net.cpp:434] inception_4a/output <- inception_4a/3x3
I1108 14:33:51.797837 11054 net.cpp:434] inception_4a/output <- inception_4a/5x5
I1108 14:33:51.797842 11054 net.cpp:434] inception_4a/output <- inception_4a/pool_proj
I1108 14:33:51.797852 11054 net.cpp:408] inception_4a/output -> inception_4a/output
I1108 14:33:51.797890 11054 net.cpp:150] Setting up inception_4a/output
I1108 14:33:51.797899 11054 net.cpp:157] Top shape: 32 512 14 14 (3211264)
I1108 14:33:51.797904 11054 net.cpp:165] Memory required for data: 1195393536
I1108 14:33:51.797907 11054 layer_factory.hpp:77] Creating layer inception_4a/output_inception_4a/output_0_split
I1108 14:33:51.797915 11054 net.cpp:100] Creating Layer inception_4a/output_inception_4a/output_0_split
I1108 14:33:51.797920 11054 net.cpp:434] inception_4a/output_inception_4a/output_0_split <- inception_4a/output
I1108 14:33:51.797926 11054 net.cpp:408] inception_4a/output_inception_4a/output_0_split -> inception_4a/output_inception_4a/output_0_split_0
I1108 14:33:51.797940 11054 net.cpp:408] inception_4a/output_inception_4a/output_0_split -> inception_4a/output_inception_4a/output_0_split_1
I1108 14:33:51.797948 11054 net.cpp:408] inception_4a/output_inception_4a/output_0_split -> inception_4a/output_inception_4a/output_0_split_2
I1108 14:33:51.797956 11054 net.cpp:408] inception_4a/output_inception_4a/output_0_split -> inception_4a/output_inception_4a/output_0_split_3
I1108 14:33:51.797963 11054 net.cpp:408] inception_4a/output_inception_4a/output_0_split -> inception_4a/output_inception_4a/output_0_split_4
I1108 14:33:51.798048 11054 net.cpp:150] Setting up inception_4a/output_inception_4a/output_0_split
I1108 14:33:51.798059 11054 net.cpp:157] Top shape: 32 512 14 14 (3211264)
I1108 14:33:51.798065 11054 net.cpp:157] Top shape: 32 512 14 14 (3211264)
I1108 14:33:51.798070 11054 net.cpp:157] Top shape: 32 512 14 14 (3211264)
I1108 14:33:51.798075 11054 net.cpp:157] Top shape: 32 512 14 14 (3211264)
I1108 14:33:51.798080 11054 net.cpp:157] Top shape: 32 512 14 14 (3211264)
I1108 14:33:51.798084 11054 net.cpp:165] Memory required for data: 1259618816
I1108 14:33:51.798089 11054 layer_factory.hpp:77] Creating layer loss1/ave_pool
I1108 14:33:51.798095 11054 net.cpp:100] Creating Layer loss1/ave_pool
I1108 14:33:51.798100 11054 net.cpp:434] loss1/ave_pool <- inception_4a/output_inception_4a/output_0_split_0
I1108 14:33:51.798107 11054 net.cpp:408] loss1/ave_pool -> loss1/ave_pool
I1108 14:33:51.798554 11054 net.cpp:150] Setting up loss1/ave_pool
I1108 14:33:51.798575 11054 net.cpp:157] Top shape: 32 512 4 4 (262144)
I1108 14:33:51.798588 11054 net.cpp:165] Memory required for data: 1260667392
I1108 14:33:51.798593 11054 layer_factory.hpp:77] Creating layer loss1/conv
I1108 14:33:51.798607 11054 net.cpp:100] Creating Layer loss1/conv
I1108 14:33:51.798614 11054 net.cpp:434] loss1/conv <- loss1/ave_pool
I1108 14:33:51.798621 11054 net.cpp:408] loss1/conv -> loss1/conv
I1108 14:33:51.800452 11054 net.cpp:150] Setting up loss1/conv
I1108 14:33:51.800470 11054 net.cpp:157] Top shape: 32 128 4 4 (65536)
I1108 14:33:51.800475 11054 net.cpp:165] Memory required for data: 1260929536
I1108 14:33:51.800484 11054 layer_factory.hpp:77] Creating layer loss1/relu_conv
I1108 14:33:51.800493 11054 net.cpp:100] Creating Layer loss1/relu_conv
I1108 14:33:51.800501 11054 net.cpp:434] loss1/relu_conv <- loss1/conv
I1108 14:33:51.800508 11054 net.cpp:395] loss1/relu_conv -> loss1/conv (in-place)
I1108 14:33:51.800705 11054 net.cpp:150] Setting up loss1/relu_conv
I1108 14:33:51.800719 11054 net.cpp:157] Top shape: 32 128 4 4 (65536)
I1108 14:33:51.800722 11054 net.cpp:165] Memory required for data: 1261191680
I1108 14:33:51.800727 11054 layer_factory.hpp:77] Creating layer loss1/fc
I1108 14:33:51.800740 11054 net.cpp:100] Creating Layer loss1/fc
I1108 14:33:51.800746 11054 net.cpp:434] loss1/fc <- loss1/conv
I1108 14:33:51.800755 11054 net.cpp:408] loss1/fc -> loss1/fc
I1108 14:33:51.823407 11054 net.cpp:150] Setting up loss1/fc
I1108 14:33:51.823431 11054 net.cpp:157] Top shape: 32 1024 (32768)
I1108 14:33:51.823436 11054 net.cpp:165] Memory required for data: 1261322752
I1108 14:33:51.823444 11054 layer_factory.hpp:77] Creating layer loss1/relu_fc
I1108 14:33:51.823453 11054 net.cpp:100] Creating Layer loss1/relu_fc
I1108 14:33:51.823459 11054 net.cpp:434] loss1/relu_fc <- loss1/fc
I1108 14:33:51.823468 11054 net.cpp:395] loss1/relu_fc -> loss1/fc (in-place)
I1108 14:33:51.823904 11054 net.cpp:150] Setting up loss1/relu_fc
I1108 14:33:51.823920 11054 net.cpp:157] Top shape: 32 1024 (32768)
I1108 14:33:51.823925 11054 net.cpp:165] Memory required for data: 1261453824
I1108 14:33:51.823930 11054 layer_factory.hpp:77] Creating layer loss1/drop_fc
I1108 14:33:51.823952 11054 net.cpp:100] Creating Layer loss1/drop_fc
I1108 14:33:51.823958 11054 net.cpp:434] loss1/drop_fc <- loss1/fc
I1108 14:33:51.823966 11054 net.cpp:395] loss1/drop_fc -> loss1/fc (in-place)
I1108 14:33:51.824007 11054 net.cpp:150] Setting up loss1/drop_fc
I1108 14:33:51.824019 11054 net.cpp:157] Top shape: 32 1024 (32768)
I1108 14:33:51.824023 11054 net.cpp:165] Memory required for data: 1261584896
I1108 14:33:51.824029 11054 layer_factory.hpp:77] Creating layer loss1/classifier
I1108 14:33:51.824038 11054 net.cpp:100] Creating Layer loss1/classifier
I1108 14:33:51.824043 11054 net.cpp:434] loss1/classifier <- loss1/fc
I1108 14:33:51.824054 11054 net.cpp:408] loss1/classifier -> loss1/classifier
I1108 14:33:51.826098 11054 net.cpp:150] Setting up loss1/classifier
I1108 14:33:51.826114 11054 net.cpp:157] Top shape: 32 100 (3200)
I1108 14:33:51.826119 11054 net.cpp:165] Memory required for data: 1261597696
I1108 14:33:51.826128 11054 layer_factory.hpp:77] Creating layer loss1/loss
I1108 14:33:51.826141 11054 net.cpp:100] Creating Layer loss1/loss
I1108 14:33:51.826148 11054 net.cpp:434] loss1/loss <- loss1/classifier
I1108 14:33:51.826156 11054 net.cpp:434] loss1/loss <- label_data_1_split_0
I1108 14:33:51.826164 11054 net.cpp:408] loss1/loss -> loss1/loss1
I1108 14:33:51.826181 11054 layer_factory.hpp:77] Creating layer loss1/loss
I1108 14:33:51.826517 11054 net.cpp:150] Setting up loss1/loss
I1108 14:33:51.826534 11054 net.cpp:157] Top shape: (1)
I1108 14:33:51.826539 11054 net.cpp:160]     with loss weight 0.3
I1108 14:33:51.826570 11054 net.cpp:165] Memory required for data: 1261597700
I1108 14:33:51.826576 11054 layer_factory.hpp:77] Creating layer inception_4b/1x1
I1108 14:33:51.826587 11054 net.cpp:100] Creating Layer inception_4b/1x1
I1108 14:33:51.826593 11054 net.cpp:434] inception_4b/1x1 <- inception_4a/output_inception_4a/output_0_split_1
I1108 14:33:51.826609 11054 net.cpp:408] inception_4b/1x1 -> inception_4b/1x1
I1108 14:33:51.829010 11054 net.cpp:150] Setting up inception_4b/1x1
I1108 14:33:51.829031 11054 net.cpp:157] Top shape: 32 160 14 14 (1003520)
I1108 14:33:51.829036 11054 net.cpp:165] Memory required for data: 1265611780
I1108 14:33:51.829046 11054 layer_factory.hpp:77] Creating layer inception_4b/relu_1x1
I1108 14:33:51.829054 11054 net.cpp:100] Creating Layer inception_4b/relu_1x1
I1108 14:33:51.829061 11054 net.cpp:434] inception_4b/relu_1x1 <- inception_4b/1x1
I1108 14:33:51.829069 11054 net.cpp:395] inception_4b/relu_1x1 -> inception_4b/1x1 (in-place)
I1108 14:33:51.829481 11054 net.cpp:150] Setting up inception_4b/relu_1x1
I1108 14:33:51.829497 11054 net.cpp:157] Top shape: 32 160 14 14 (1003520)
I1108 14:33:51.829502 11054 net.cpp:165] Memory required for data: 1269625860
I1108 14:33:51.829507 11054 layer_factory.hpp:77] Creating layer inception_4b/3x3_reduce
I1108 14:33:51.829520 11054 net.cpp:100] Creating Layer inception_4b/3x3_reduce
I1108 14:33:51.829526 11054 net.cpp:434] inception_4b/3x3_reduce <- inception_4a/output_inception_4a/output_0_split_2
I1108 14:33:51.829537 11054 net.cpp:408] inception_4b/3x3_reduce -> inception_4b/3x3_reduce
I1108 14:33:51.832274 11054 net.cpp:150] Setting up inception_4b/3x3_reduce
I1108 14:33:51.832293 11054 net.cpp:157] Top shape: 32 112 14 14 (702464)
I1108 14:33:51.832298 11054 net.cpp:165] Memory required for data: 1272435716
I1108 14:33:51.832307 11054 layer_factory.hpp:77] Creating layer inception_4b/relu_3x3_reduce
I1108 14:33:51.832314 11054 net.cpp:100] Creating Layer inception_4b/relu_3x3_reduce
I1108 14:33:51.832321 11054 net.cpp:434] inception_4b/relu_3x3_reduce <- inception_4b/3x3_reduce
I1108 14:33:51.832330 11054 net.cpp:395] inception_4b/relu_3x3_reduce -> inception_4b/3x3_reduce (in-place)
I1108 14:33:51.832746 11054 net.cpp:150] Setting up inception_4b/relu_3x3_reduce
I1108 14:33:51.832762 11054 net.cpp:157] Top shape: 32 112 14 14 (702464)
I1108 14:33:51.832767 11054 net.cpp:165] Memory required for data: 1275245572
I1108 14:33:51.832772 11054 layer_factory.hpp:77] Creating layer inception_4b/3x3
I1108 14:33:51.832785 11054 net.cpp:100] Creating Layer inception_4b/3x3
I1108 14:33:51.832792 11054 net.cpp:434] inception_4b/3x3 <- inception_4b/3x3_reduce
I1108 14:33:51.832803 11054 net.cpp:408] inception_4b/3x3 -> inception_4b/3x3
I1108 14:33:51.837064 11054 net.cpp:150] Setting up inception_4b/3x3
I1108 14:33:51.837082 11054 net.cpp:157] Top shape: 32 224 14 14 (1404928)
I1108 14:33:51.837088 11054 net.cpp:165] Memory required for data: 1280865284
I1108 14:33:51.837097 11054 layer_factory.hpp:77] Creating layer inception_4b/relu_3x3
I1108 14:33:51.837107 11054 net.cpp:100] Creating Layer inception_4b/relu_3x3
I1108 14:33:51.837113 11054 net.cpp:434] inception_4b/relu_3x3 <- inception_4b/3x3
I1108 14:33:51.837121 11054 net.cpp:395] inception_4b/relu_3x3 -> inception_4b/3x3 (in-place)
I1108 14:33:51.837335 11054 net.cpp:150] Setting up inception_4b/relu_3x3
I1108 14:33:51.837349 11054 net.cpp:157] Top shape: 32 224 14 14 (1404928)
I1108 14:33:51.837354 11054 net.cpp:165] Memory required for data: 1286484996
I1108 14:33:51.837359 11054 layer_factory.hpp:77] Creating layer inception_4b/5x5_reduce
I1108 14:33:51.837373 11054 net.cpp:100] Creating Layer inception_4b/5x5_reduce
I1108 14:33:51.837378 11054 net.cpp:434] inception_4b/5x5_reduce <- inception_4a/output_inception_4a/output_0_split_3
I1108 14:33:51.837388 11054 net.cpp:408] inception_4b/5x5_reduce -> inception_4b/5x5_reduce
I1108 14:33:51.838829 11054 net.cpp:150] Setting up inception_4b/5x5_reduce
I1108 14:33:51.838847 11054 net.cpp:157] Top shape: 32 24 14 14 (150528)
I1108 14:33:51.838852 11054 net.cpp:165] Memory required for data: 1287087108
I1108 14:33:51.838861 11054 layer_factory.hpp:77] Creating layer inception_4b/relu_5x5_reduce
I1108 14:33:51.838871 11054 net.cpp:100] Creating Layer inception_4b/relu_5x5_reduce
I1108 14:33:51.838878 11054 net.cpp:434] inception_4b/relu_5x5_reduce <- inception_4b/5x5_reduce
I1108 14:33:51.838891 11054 net.cpp:395] inception_4b/relu_5x5_reduce -> inception_4b/5x5_reduce (in-place)
I1108 14:33:51.839546 11054 net.cpp:150] Setting up inception_4b/relu_5x5_reduce
I1108 14:33:51.839565 11054 net.cpp:157] Top shape: 32 24 14 14 (150528)
I1108 14:33:51.839570 11054 net.cpp:165] Memory required for data: 1287689220
I1108 14:33:51.839575 11054 layer_factory.hpp:77] Creating layer inception_4b/5x5
I1108 14:33:51.839588 11054 net.cpp:100] Creating Layer inception_4b/5x5
I1108 14:33:51.839594 11054 net.cpp:434] inception_4b/5x5 <- inception_4b/5x5_reduce
I1108 14:33:51.839604 11054 net.cpp:408] inception_4b/5x5 -> inception_4b/5x5
I1108 14:33:51.841053 11054 net.cpp:150] Setting up inception_4b/5x5
I1108 14:33:51.841071 11054 net.cpp:157] Top shape: 32 64 14 14 (401408)
I1108 14:33:51.841078 11054 net.cpp:165] Memory required for data: 1289294852
I1108 14:33:51.841086 11054 layer_factory.hpp:77] Creating layer inception_4b/relu_5x5
I1108 14:33:51.841094 11054 net.cpp:100] Creating Layer inception_4b/relu_5x5
I1108 14:33:51.841100 11054 net.cpp:434] inception_4b/relu_5x5 <- inception_4b/5x5
I1108 14:33:51.841109 11054 net.cpp:395] inception_4b/relu_5x5 -> inception_4b/5x5 (in-place)
I1108 14:33:51.841531 11054 net.cpp:150] Setting up inception_4b/relu_5x5
I1108 14:33:51.841547 11054 net.cpp:157] Top shape: 32 64 14 14 (401408)
I1108 14:33:51.841552 11054 net.cpp:165] Memory required for data: 1290900484
I1108 14:33:51.841558 11054 layer_factory.hpp:77] Creating layer inception_4b/pool
I1108 14:33:51.841567 11054 net.cpp:100] Creating Layer inception_4b/pool
I1108 14:33:51.841572 11054 net.cpp:434] inception_4b/pool <- inception_4a/output_inception_4a/output_0_split_4
I1108 14:33:51.841583 11054 net.cpp:408] inception_4b/pool -> inception_4b/pool
I1108 14:33:51.841651 11054 net.cpp:150] Setting up inception_4b/pool
I1108 14:33:51.841662 11054 net.cpp:157] Top shape: 32 512 14 14 (3211264)
I1108 14:33:51.841666 11054 net.cpp:165] Memory required for data: 1303745540
I1108 14:33:51.841671 11054 layer_factory.hpp:77] Creating layer inception_4b/pool_proj
I1108 14:33:51.841686 11054 net.cpp:100] Creating Layer inception_4b/pool_proj
I1108 14:33:51.841691 11054 net.cpp:434] inception_4b/pool_proj <- inception_4b/pool
I1108 14:33:51.841698 11054 net.cpp:408] inception_4b/pool_proj -> inception_4b/pool_proj
I1108 14:33:51.843312 11054 net.cpp:150] Setting up inception_4b/pool_proj
I1108 14:33:51.843329 11054 net.cpp:157] Top shape: 32 64 14 14 (401408)
I1108 14:33:51.843334 11054 net.cpp:165] Memory required for data: 1305351172
I1108 14:33:51.843343 11054 layer_factory.hpp:77] Creating layer inception_4b/relu_pool_proj
I1108 14:33:51.843353 11054 net.cpp:100] Creating Layer inception_4b/relu_pool_proj
I1108 14:33:51.843360 11054 net.cpp:434] inception_4b/relu_pool_proj <- inception_4b/pool_proj
I1108 14:33:51.843369 11054 net.cpp:395] inception_4b/relu_pool_proj -> inception_4b/pool_proj (in-place)
I1108 14:33:51.843619 11054 net.cpp:150] Setting up inception_4b/relu_pool_proj
I1108 14:33:51.843632 11054 net.cpp:157] Top shape: 32 64 14 14 (401408)
I1108 14:33:51.843637 11054 net.cpp:165] Memory required for data: 1306956804
I1108 14:33:51.843642 11054 layer_factory.hpp:77] Creating layer inception_4b/output
I1108 14:33:51.843649 11054 net.cpp:100] Creating Layer inception_4b/output
I1108 14:33:51.843655 11054 net.cpp:434] inception_4b/output <- inception_4b/1x1
I1108 14:33:51.843662 11054 net.cpp:434] inception_4b/output <- inception_4b/3x3
I1108 14:33:51.843667 11054 net.cpp:434] inception_4b/output <- inception_4b/5x5
I1108 14:33:51.843673 11054 net.cpp:434] inception_4b/output <- inception_4b/pool_proj
I1108 14:33:51.843679 11054 net.cpp:408] inception_4b/output -> inception_4b/output
I1108 14:33:51.843715 11054 net.cpp:150] Setting up inception_4b/output
I1108 14:33:51.843724 11054 net.cpp:157] Top shape: 32 512 14 14 (3211264)
I1108 14:33:51.843729 11054 net.cpp:165] Memory required for data: 1319801860
I1108 14:33:51.843734 11054 layer_factory.hpp:77] Creating layer inception_4b/output_inception_4b/output_0_split
I1108 14:33:51.843746 11054 net.cpp:100] Creating Layer inception_4b/output_inception_4b/output_0_split
I1108 14:33:51.843760 11054 net.cpp:434] inception_4b/output_inception_4b/output_0_split <- inception_4b/output
I1108 14:33:51.843766 11054 net.cpp:408] inception_4b/output_inception_4b/output_0_split -> inception_4b/output_inception_4b/output_0_split_0
I1108 14:33:51.843775 11054 net.cpp:408] inception_4b/output_inception_4b/output_0_split -> inception_4b/output_inception_4b/output_0_split_1
I1108 14:33:51.843783 11054 net.cpp:408] inception_4b/output_inception_4b/output_0_split -> inception_4b/output_inception_4b/output_0_split_2
I1108 14:33:51.843791 11054 net.cpp:408] inception_4b/output_inception_4b/output_0_split -> inception_4b/output_inception_4b/output_0_split_3
I1108 14:33:51.843863 11054 net.cpp:150] Setting up inception_4b/output_inception_4b/output_0_split
I1108 14:33:51.843873 11054 net.cpp:157] Top shape: 32 512 14 14 (3211264)
I1108 14:33:51.843878 11054 net.cpp:157] Top shape: 32 512 14 14 (3211264)
I1108 14:33:51.843883 11054 net.cpp:157] Top shape: 32 512 14 14 (3211264)
I1108 14:33:51.843888 11054 net.cpp:157] Top shape: 32 512 14 14 (3211264)
I1108 14:33:51.843893 11054 net.cpp:165] Memory required for data: 1371182084
I1108 14:33:51.843896 11054 layer_factory.hpp:77] Creating layer inception_4c/1x1
I1108 14:33:51.843907 11054 net.cpp:100] Creating Layer inception_4c/1x1
I1108 14:33:51.843912 11054 net.cpp:434] inception_4c/1x1 <- inception_4b/output_inception_4b/output_0_split_0
I1108 14:33:51.843920 11054 net.cpp:408] inception_4c/1x1 -> inception_4c/1x1
I1108 14:33:51.845788 11054 net.cpp:150] Setting up inception_4c/1x1
I1108 14:33:51.845808 11054 net.cpp:157] Top shape: 32 128 14 14 (802816)
I1108 14:33:51.845814 11054 net.cpp:165] Memory required for data: 1374393348
I1108 14:33:51.845824 11054 layer_factory.hpp:77] Creating layer inception_4c/relu_1x1
I1108 14:33:51.845831 11054 net.cpp:100] Creating Layer inception_4c/relu_1x1
I1108 14:33:51.845837 11054 net.cpp:434] inception_4c/relu_1x1 <- inception_4c/1x1
I1108 14:33:51.845846 11054 net.cpp:395] inception_4c/relu_1x1 -> inception_4c/1x1 (in-place)
I1108 14:33:51.846263 11054 net.cpp:150] Setting up inception_4c/relu_1x1
I1108 14:33:51.846279 11054 net.cpp:157] Top shape: 32 128 14 14 (802816)
I1108 14:33:51.846284 11054 net.cpp:165] Memory required for data: 1377604612
I1108 14:33:51.846289 11054 layer_factory.hpp:77] Creating layer inception_4c/3x3_reduce
I1108 14:33:51.846302 11054 net.cpp:100] Creating Layer inception_4c/3x3_reduce
I1108 14:33:51.846309 11054 net.cpp:434] inception_4c/3x3_reduce <- inception_4b/output_inception_4b/output_0_split_1
I1108 14:33:51.846318 11054 net.cpp:408] inception_4c/3x3_reduce -> inception_4c/3x3_reduce
I1108 14:33:51.847995 11054 net.cpp:150] Setting up inception_4c/3x3_reduce
I1108 14:33:51.848012 11054 net.cpp:157] Top shape: 32 128 14 14 (802816)
I1108 14:33:51.848018 11054 net.cpp:165] Memory required for data: 1380815876
I1108 14:33:51.848026 11054 layer_factory.hpp:77] Creating layer inception_4c/relu_3x3_reduce
I1108 14:33:51.848037 11054 net.cpp:100] Creating Layer inception_4c/relu_3x3_reduce
I1108 14:33:51.848043 11054 net.cpp:434] inception_4c/relu_3x3_reduce <- inception_4c/3x3_reduce
I1108 14:33:51.848050 11054 net.cpp:395] inception_4c/relu_3x3_reduce -> inception_4c/3x3_reduce (in-place)
I1108 14:33:51.848472 11054 net.cpp:150] Setting up inception_4c/relu_3x3_reduce
I1108 14:33:51.848489 11054 net.cpp:157] Top shape: 32 128 14 14 (802816)
I1108 14:33:51.848495 11054 net.cpp:165] Memory required for data: 1384027140
I1108 14:33:51.848500 11054 layer_factory.hpp:77] Creating layer inception_4c/3x3
I1108 14:33:51.848516 11054 net.cpp:100] Creating Layer inception_4c/3x3
I1108 14:33:51.848522 11054 net.cpp:434] inception_4c/3x3 <- inception_4c/3x3_reduce
I1108 14:33:51.848531 11054 net.cpp:408] inception_4c/3x3 -> inception_4c/3x3
I1108 14:33:51.853840 11054 net.cpp:150] Setting up inception_4c/3x3
I1108 14:33:51.853860 11054 net.cpp:157] Top shape: 32 256 14 14 (1605632)
I1108 14:33:51.853870 11054 net.cpp:165] Memory required for data: 1390449668
I1108 14:33:51.853900 11054 layer_factory.hpp:77] Creating layer inception_4c/relu_3x3
I1108 14:33:51.853911 11054 net.cpp:100] Creating Layer inception_4c/relu_3x3
I1108 14:33:51.853919 11054 net.cpp:434] inception_4c/relu_3x3 <- inception_4c/3x3
I1108 14:33:51.853925 11054 net.cpp:395] inception_4c/relu_3x3 -> inception_4c/3x3 (in-place)
I1108 14:33:51.854138 11054 net.cpp:150] Setting up inception_4c/relu_3x3
I1108 14:33:51.854152 11054 net.cpp:157] Top shape: 32 256 14 14 (1605632)
I1108 14:33:51.854157 11054 net.cpp:165] Memory required for data: 1396872196
I1108 14:33:51.854162 11054 layer_factory.hpp:77] Creating layer inception_4c/5x5_reduce
I1108 14:33:51.854176 11054 net.cpp:100] Creating Layer inception_4c/5x5_reduce
I1108 14:33:51.854182 11054 net.cpp:434] inception_4c/5x5_reduce <- inception_4b/output_inception_4b/output_0_split_2
I1108 14:33:51.854193 11054 net.cpp:408] inception_4c/5x5_reduce -> inception_4c/5x5_reduce
I1108 14:33:51.855654 11054 net.cpp:150] Setting up inception_4c/5x5_reduce
I1108 14:33:51.855672 11054 net.cpp:157] Top shape: 32 24 14 14 (150528)
I1108 14:33:51.855679 11054 net.cpp:165] Memory required for data: 1397474308
I1108 14:33:51.855686 11054 layer_factory.hpp:77] Creating layer inception_4c/relu_5x5_reduce
I1108 14:33:51.855695 11054 net.cpp:100] Creating Layer inception_4c/relu_5x5_reduce
I1108 14:33:51.855701 11054 net.cpp:434] inception_4c/relu_5x5_reduce <- inception_4c/5x5_reduce
I1108 14:33:51.855708 11054 net.cpp:395] inception_4c/relu_5x5_reduce -> inception_4c/5x5_reduce (in-place)
I1108 14:33:51.856127 11054 net.cpp:150] Setting up inception_4c/relu_5x5_reduce
I1108 14:33:51.856142 11054 net.cpp:157] Top shape: 32 24 14 14 (150528)
I1108 14:33:51.856147 11054 net.cpp:165] Memory required for data: 1398076420
I1108 14:33:51.856151 11054 layer_factory.hpp:77] Creating layer inception_4c/5x5
I1108 14:33:51.856164 11054 net.cpp:100] Creating Layer inception_4c/5x5
I1108 14:33:51.856170 11054 net.cpp:434] inception_4c/5x5 <- inception_4c/5x5_reduce
I1108 14:33:51.856181 11054 net.cpp:408] inception_4c/5x5 -> inception_4c/5x5
I1108 14:33:51.858762 11054 net.cpp:150] Setting up inception_4c/5x5
I1108 14:33:51.858780 11054 net.cpp:157] Top shape: 32 64 14 14 (401408)
I1108 14:33:51.858785 11054 net.cpp:165] Memory required for data: 1399682052
I1108 14:33:51.858794 11054 layer_factory.hpp:77] Creating layer inception_4c/relu_5x5
I1108 14:33:51.858803 11054 net.cpp:100] Creating Layer inception_4c/relu_5x5
I1108 14:33:51.858809 11054 net.cpp:434] inception_4c/relu_5x5 <- inception_4c/5x5
I1108 14:33:51.858815 11054 net.cpp:395] inception_4c/relu_5x5 -> inception_4c/5x5 (in-place)
I1108 14:33:51.859241 11054 net.cpp:150] Setting up inception_4c/relu_5x5
I1108 14:33:51.859256 11054 net.cpp:157] Top shape: 32 64 14 14 (401408)
I1108 14:33:51.859261 11054 net.cpp:165] Memory required for data: 1401287684
I1108 14:33:51.859266 11054 layer_factory.hpp:77] Creating layer inception_4c/pool
I1108 14:33:51.859274 11054 net.cpp:100] Creating Layer inception_4c/pool
I1108 14:33:51.859280 11054 net.cpp:434] inception_4c/pool <- inception_4b/output_inception_4b/output_0_split_3
I1108 14:33:51.859289 11054 net.cpp:408] inception_4c/pool -> inception_4c/pool
I1108 14:33:51.859350 11054 net.cpp:150] Setting up inception_4c/pool
I1108 14:33:51.859359 11054 net.cpp:157] Top shape: 32 512 14 14 (3211264)
I1108 14:33:51.859365 11054 net.cpp:165] Memory required for data: 1414132740
I1108 14:33:51.859369 11054 layer_factory.hpp:77] Creating layer inception_4c/pool_proj
I1108 14:33:51.859385 11054 net.cpp:100] Creating Layer inception_4c/pool_proj
I1108 14:33:51.859391 11054 net.cpp:434] inception_4c/pool_proj <- inception_4c/pool
I1108 14:33:51.859400 11054 net.cpp:408] inception_4c/pool_proj -> inception_4c/pool_proj
I1108 14:33:51.861013 11054 net.cpp:150] Setting up inception_4c/pool_proj
I1108 14:33:51.861032 11054 net.cpp:157] Top shape: 32 64 14 14 (401408)
I1108 14:33:51.861037 11054 net.cpp:165] Memory required for data: 1415738372
I1108 14:33:51.861049 11054 layer_factory.hpp:77] Creating layer inception_4c/relu_pool_proj
I1108 14:33:51.861066 11054 net.cpp:100] Creating Layer inception_4c/relu_pool_proj
I1108 14:33:51.861073 11054 net.cpp:434] inception_4c/relu_pool_proj <- inception_4c/pool_proj
I1108 14:33:51.861083 11054 net.cpp:395] inception_4c/relu_pool_proj -> inception_4c/pool_proj (in-place)
I1108 14:33:51.861299 11054 net.cpp:150] Setting up inception_4c/relu_pool_proj
I1108 14:33:51.861312 11054 net.cpp:157] Top shape: 32 64 14 14 (401408)
I1108 14:33:51.861316 11054 net.cpp:165] Memory required for data: 1417344004
I1108 14:33:51.861321 11054 layer_factory.hpp:77] Creating layer inception_4c/output
I1108 14:33:51.861331 11054 net.cpp:100] Creating Layer inception_4c/output
I1108 14:33:51.861337 11054 net.cpp:434] inception_4c/output <- inception_4c/1x1
I1108 14:33:51.861344 11054 net.cpp:434] inception_4c/output <- inception_4c/3x3
I1108 14:33:51.861349 11054 net.cpp:434] inception_4c/output <- inception_4c/5x5
I1108 14:33:51.861356 11054 net.cpp:434] inception_4c/output <- inception_4c/pool_proj
I1108 14:33:51.861362 11054 net.cpp:408] inception_4c/output -> inception_4c/output
I1108 14:33:51.861403 11054 net.cpp:150] Setting up inception_4c/output
I1108 14:33:51.861413 11054 net.cpp:157] Top shape: 32 512 14 14 (3211264)
I1108 14:33:51.861416 11054 net.cpp:165] Memory required for data: 1430189060
I1108 14:33:51.861421 11054 layer_factory.hpp:77] Creating layer inception_4c/output_inception_4c/output_0_split
I1108 14:33:51.861428 11054 net.cpp:100] Creating Layer inception_4c/output_inception_4c/output_0_split
I1108 14:33:51.861433 11054 net.cpp:434] inception_4c/output_inception_4c/output_0_split <- inception_4c/output
I1108 14:33:51.861443 11054 net.cpp:408] inception_4c/output_inception_4c/output_0_split -> inception_4c/output_inception_4c/output_0_split_0
I1108 14:33:51.861452 11054 net.cpp:408] inception_4c/output_inception_4c/output_0_split -> inception_4c/output_inception_4c/output_0_split_1
I1108 14:33:51.861460 11054 net.cpp:408] inception_4c/output_inception_4c/output_0_split -> inception_4c/output_inception_4c/output_0_split_2
I1108 14:33:51.861467 11054 net.cpp:408] inception_4c/output_inception_4c/output_0_split -> inception_4c/output_inception_4c/output_0_split_3
I1108 14:33:51.861548 11054 net.cpp:150] Setting up inception_4c/output_inception_4c/output_0_split
I1108 14:33:51.861559 11054 net.cpp:157] Top shape: 32 512 14 14 (3211264)
I1108 14:33:51.861564 11054 net.cpp:157] Top shape: 32 512 14 14 (3211264)
I1108 14:33:51.861569 11054 net.cpp:157] Top shape: 32 512 14 14 (3211264)
I1108 14:33:51.861575 11054 net.cpp:157] Top shape: 32 512 14 14 (3211264)
I1108 14:33:51.861579 11054 net.cpp:165] Memory required for data: 1481569284
I1108 14:33:51.861583 11054 layer_factory.hpp:77] Creating layer inception_4d/1x1
I1108 14:33:51.861596 11054 net.cpp:100] Creating Layer inception_4d/1x1
I1108 14:33:51.861601 11054 net.cpp:434] inception_4d/1x1 <- inception_4c/output_inception_4c/output_0_split_0
I1108 14:33:51.861609 11054 net.cpp:408] inception_4d/1x1 -> inception_4d/1x1
I1108 14:33:51.863425 11054 net.cpp:150] Setting up inception_4d/1x1
I1108 14:33:51.863442 11054 net.cpp:157] Top shape: 32 112 14 14 (702464)
I1108 14:33:51.863447 11054 net.cpp:165] Memory required for data: 1484379140
I1108 14:33:51.863456 11054 layer_factory.hpp:77] Creating layer inception_4d/relu_1x1
I1108 14:33:51.863467 11054 net.cpp:100] Creating Layer inception_4d/relu_1x1
I1108 14:33:51.863473 11054 net.cpp:434] inception_4d/relu_1x1 <- inception_4d/1x1
I1108 14:33:51.863481 11054 net.cpp:395] inception_4d/relu_1x1 -> inception_4d/1x1 (in-place)
I1108 14:33:51.863898 11054 net.cpp:150] Setting up inception_4d/relu_1x1
I1108 14:33:51.863915 11054 net.cpp:157] Top shape: 32 112 14 14 (702464)
I1108 14:33:51.863920 11054 net.cpp:165] Memory required for data: 1487188996
I1108 14:33:51.863926 11054 layer_factory.hpp:77] Creating layer inception_4d/3x3_reduce
I1108 14:33:51.863937 11054 net.cpp:100] Creating Layer inception_4d/3x3_reduce
I1108 14:33:51.863947 11054 net.cpp:434] inception_4d/3x3_reduce <- inception_4c/output_inception_4c/output_0_split_1
I1108 14:33:51.863965 11054 net.cpp:408] inception_4d/3x3_reduce -> inception_4d/3x3_reduce
I1108 14:33:51.865748 11054 net.cpp:150] Setting up inception_4d/3x3_reduce
I1108 14:33:51.865767 11054 net.cpp:157] Top shape: 32 144 14 14 (903168)
I1108 14:33:51.865772 11054 net.cpp:165] Memory required for data: 1490801668
I1108 14:33:51.865780 11054 layer_factory.hpp:77] Creating layer inception_4d/relu_3x3_reduce
I1108 14:33:51.865792 11054 net.cpp:100] Creating Layer inception_4d/relu_3x3_reduce
I1108 14:33:51.865797 11054 net.cpp:434] inception_4d/relu_3x3_reduce <- inception_4d/3x3_reduce
I1108 14:33:51.865805 11054 net.cpp:395] inception_4d/relu_3x3_reduce -> inception_4d/3x3_reduce (in-place)
I1108 14:33:51.866225 11054 net.cpp:150] Setting up inception_4d/relu_3x3_reduce
I1108 14:33:51.866240 11054 net.cpp:157] Top shape: 32 144 14 14 (903168)
I1108 14:33:51.866245 11054 net.cpp:165] Memory required for data: 1494414340
I1108 14:33:51.866250 11054 layer_factory.hpp:77] Creating layer inception_4d/3x3
I1108 14:33:51.866263 11054 net.cpp:100] Creating Layer inception_4d/3x3
I1108 14:33:51.866269 11054 net.cpp:434] inception_4d/3x3 <- inception_4d/3x3_reduce
I1108 14:33:51.866279 11054 net.cpp:408] inception_4d/3x3 -> inception_4d/3x3
I1108 14:33:51.872007 11054 net.cpp:150] Setting up inception_4d/3x3
I1108 14:33:51.872027 11054 net.cpp:157] Top shape: 32 288 14 14 (1806336)
I1108 14:33:51.872033 11054 net.cpp:165] Memory required for data: 1501639684
I1108 14:33:51.872042 11054 layer_factory.hpp:77] Creating layer inception_4d/relu_3x3
I1108 14:33:51.872051 11054 net.cpp:100] Creating Layer inception_4d/relu_3x3
I1108 14:33:51.872056 11054 net.cpp:434] inception_4d/relu_3x3 <- inception_4d/3x3
I1108 14:33:51.872064 11054 net.cpp:395] inception_4d/relu_3x3 -> inception_4d/3x3 (in-place)
I1108 14:33:51.872282 11054 net.cpp:150] Setting up inception_4d/relu_3x3
I1108 14:33:51.872295 11054 net.cpp:157] Top shape: 32 288 14 14 (1806336)
I1108 14:33:51.872299 11054 net.cpp:165] Memory required for data: 1508865028
I1108 14:33:51.872304 11054 layer_factory.hpp:77] Creating layer inception_4d/5x5_reduce
I1108 14:33:51.872318 11054 net.cpp:100] Creating Layer inception_4d/5x5_reduce
I1108 14:33:51.872323 11054 net.cpp:434] inception_4d/5x5_reduce <- inception_4c/output_inception_4c/output_0_split_2
I1108 14:33:51.872334 11054 net.cpp:408] inception_4d/5x5_reduce -> inception_4d/5x5_reduce
I1108 14:33:51.873857 11054 net.cpp:150] Setting up inception_4d/5x5_reduce
I1108 14:33:51.873875 11054 net.cpp:157] Top shape: 32 32 14 14 (200704)
I1108 14:33:51.873880 11054 net.cpp:165] Memory required for data: 1509667844
I1108 14:33:51.873889 11054 layer_factory.hpp:77] Creating layer inception_4d/relu_5x5_reduce
I1108 14:33:51.873898 11054 net.cpp:100] Creating Layer inception_4d/relu_5x5_reduce
I1108 14:33:51.873903 11054 net.cpp:434] inception_4d/relu_5x5_reduce <- inception_4d/5x5_reduce
I1108 14:33:51.873913 11054 net.cpp:395] inception_4d/relu_5x5_reduce -> inception_4d/5x5_reduce (in-place)
I1108 14:33:51.874361 11054 net.cpp:150] Setting up inception_4d/relu_5x5_reduce
I1108 14:33:51.874377 11054 net.cpp:157] Top shape: 32 32 14 14 (200704)
I1108 14:33:51.874382 11054 net.cpp:165] Memory required for data: 1510470660
I1108 14:33:51.874387 11054 layer_factory.hpp:77] Creating layer inception_4d/5x5
I1108 14:33:51.874400 11054 net.cpp:100] Creating Layer inception_4d/5x5
I1108 14:33:51.874408 11054 net.cpp:434] inception_4d/5x5 <- inception_4d/5x5_reduce
I1108 14:33:51.874418 11054 net.cpp:408] inception_4d/5x5 -> inception_4d/5x5
I1108 14:33:51.876456 11054 net.cpp:150] Setting up inception_4d/5x5
I1108 14:33:51.876474 11054 net.cpp:157] Top shape: 32 64 14 14 (401408)
I1108 14:33:51.876479 11054 net.cpp:165] Memory required for data: 1512076292
I1108 14:33:51.876488 11054 layer_factory.hpp:77] Creating layer inception_4d/relu_5x5
I1108 14:33:51.876498 11054 net.cpp:100] Creating Layer inception_4d/relu_5x5
I1108 14:33:51.876508 11054 net.cpp:434] inception_4d/relu_5x5 <- inception_4d/5x5
I1108 14:33:51.876523 11054 net.cpp:395] inception_4d/relu_5x5 -> inception_4d/5x5 (in-place)
I1108 14:33:51.877176 11054 net.cpp:150] Setting up inception_4d/relu_5x5
I1108 14:33:51.877195 11054 net.cpp:157] Top shape: 32 64 14 14 (401408)
I1108 14:33:51.877202 11054 net.cpp:165] Memory required for data: 1513681924
I1108 14:33:51.877207 11054 layer_factory.hpp:77] Creating layer inception_4d/pool
I1108 14:33:51.877216 11054 net.cpp:100] Creating Layer inception_4d/pool
I1108 14:33:51.877223 11054 net.cpp:434] inception_4d/pool <- inception_4c/output_inception_4c/output_0_split_3
I1108 14:33:51.877230 11054 net.cpp:408] inception_4d/pool -> inception_4d/pool
I1108 14:33:51.877295 11054 net.cpp:150] Setting up inception_4d/pool
I1108 14:33:51.877305 11054 net.cpp:157] Top shape: 32 512 14 14 (3211264)
I1108 14:33:51.877308 11054 net.cpp:165] Memory required for data: 1526526980
I1108 14:33:51.877313 11054 layer_factory.hpp:77] Creating layer inception_4d/pool_proj
I1108 14:33:51.877326 11054 net.cpp:100] Creating Layer inception_4d/pool_proj
I1108 14:33:51.877331 11054 net.cpp:434] inception_4d/pool_proj <- inception_4d/pool
I1108 14:33:51.877341 11054 net.cpp:408] inception_4d/pool_proj -> inception_4d/pool_proj
I1108 14:33:51.879029 11054 net.cpp:150] Setting up inception_4d/pool_proj
I1108 14:33:51.879048 11054 net.cpp:157] Top shape: 32 64 14 14 (401408)
I1108 14:33:51.879053 11054 net.cpp:165] Memory required for data: 1528132612
I1108 14:33:51.879062 11054 layer_factory.hpp:77] Creating layer inception_4d/relu_pool_proj
I1108 14:33:51.879077 11054 net.cpp:100] Creating Layer inception_4d/relu_pool_proj
I1108 14:33:51.879083 11054 net.cpp:434] inception_4d/relu_pool_proj <- inception_4d/pool_proj
I1108 14:33:51.879091 11054 net.cpp:395] inception_4d/relu_pool_proj -> inception_4d/pool_proj (in-place)
I1108 14:33:51.879309 11054 net.cpp:150] Setting up inception_4d/relu_pool_proj
I1108 14:33:51.879323 11054 net.cpp:157] Top shape: 32 64 14 14 (401408)
I1108 14:33:51.879328 11054 net.cpp:165] Memory required for data: 1529738244
I1108 14:33:51.879333 11054 layer_factory.hpp:77] Creating layer inception_4d/output
I1108 14:33:51.879340 11054 net.cpp:100] Creating Layer inception_4d/output
I1108 14:33:51.879346 11054 net.cpp:434] inception_4d/output <- inception_4d/1x1
I1108 14:33:51.879353 11054 net.cpp:434] inception_4d/output <- inception_4d/3x3
I1108 14:33:51.879359 11054 net.cpp:434] inception_4d/output <- inception_4d/5x5
I1108 14:33:51.879364 11054 net.cpp:434] inception_4d/output <- inception_4d/pool_proj
I1108 14:33:51.879374 11054 net.cpp:408] inception_4d/output -> inception_4d/output
I1108 14:33:51.879412 11054 net.cpp:150] Setting up inception_4d/output
I1108 14:33:51.879421 11054 net.cpp:157] Top shape: 32 528 14 14 (3311616)
I1108 14:33:51.879426 11054 net.cpp:165] Memory required for data: 1542984708
I1108 14:33:51.879431 11054 layer_factory.hpp:77] Creating layer inception_4d/output_inception_4d/output_0_split
I1108 14:33:51.879441 11054 net.cpp:100] Creating Layer inception_4d/output_inception_4d/output_0_split
I1108 14:33:51.879446 11054 net.cpp:434] inception_4d/output_inception_4d/output_0_split <- inception_4d/output
I1108 14:33:51.879453 11054 net.cpp:408] inception_4d/output_inception_4d/output_0_split -> inception_4d/output_inception_4d/output_0_split_0
I1108 14:33:51.879462 11054 net.cpp:408] inception_4d/output_inception_4d/output_0_split -> inception_4d/output_inception_4d/output_0_split_1
I1108 14:33:51.879472 11054 net.cpp:408] inception_4d/output_inception_4d/output_0_split -> inception_4d/output_inception_4d/output_0_split_2
I1108 14:33:51.879480 11054 net.cpp:408] inception_4d/output_inception_4d/output_0_split -> inception_4d/output_inception_4d/output_0_split_3
I1108 14:33:51.879487 11054 net.cpp:408] inception_4d/output_inception_4d/output_0_split -> inception_4d/output_inception_4d/output_0_split_4
I1108 14:33:51.879586 11054 net.cpp:150] Setting up inception_4d/output_inception_4d/output_0_split
I1108 14:33:51.879600 11054 net.cpp:157] Top shape: 32 528 14 14 (3311616)
I1108 14:33:51.879612 11054 net.cpp:157] Top shape: 32 528 14 14 (3311616)
I1108 14:33:51.879618 11054 net.cpp:157] Top shape: 32 528 14 14 (3311616)
I1108 14:33:51.879623 11054 net.cpp:157] Top shape: 32 528 14 14 (3311616)
I1108 14:33:51.879628 11054 net.cpp:157] Top shape: 32 528 14 14 (3311616)
I1108 14:33:51.879632 11054 net.cpp:165] Memory required for data: 1609217028
I1108 14:33:51.879637 11054 layer_factory.hpp:77] Creating layer loss2/ave_pool
I1108 14:33:51.879647 11054 net.cpp:100] Creating Layer loss2/ave_pool
I1108 14:33:51.879652 11054 net.cpp:434] loss2/ave_pool <- inception_4d/output_inception_4d/output_0_split_0
I1108 14:33:51.879659 11054 net.cpp:408] loss2/ave_pool -> loss2/ave_pool
I1108 14:33:51.880105 11054 net.cpp:150] Setting up loss2/ave_pool
I1108 14:33:51.880125 11054 net.cpp:157] Top shape: 32 528 4 4 (270336)
I1108 14:33:51.880131 11054 net.cpp:165] Memory required for data: 1610298372
I1108 14:33:51.880136 11054 layer_factory.hpp:77] Creating layer loss2/conv
I1108 14:33:51.880148 11054 net.cpp:100] Creating Layer loss2/conv
I1108 14:33:51.880156 11054 net.cpp:434] loss2/conv <- loss2/ave_pool
I1108 14:33:51.880163 11054 net.cpp:408] loss2/conv -> loss2/conv
I1108 14:33:51.882750 11054 net.cpp:150] Setting up loss2/conv
I1108 14:33:51.882768 11054 net.cpp:157] Top shape: 32 128 4 4 (65536)
I1108 14:33:51.882773 11054 net.cpp:165] Memory required for data: 1610560516
I1108 14:33:51.882782 11054 layer_factory.hpp:77] Creating layer loss2/relu_conv
I1108 14:33:51.882791 11054 net.cpp:100] Creating Layer loss2/relu_conv
I1108 14:33:51.882797 11054 net.cpp:434] loss2/relu_conv <- loss2/conv
I1108 14:33:51.882803 11054 net.cpp:395] loss2/relu_conv -> loss2/conv (in-place)
I1108 14:33:51.883020 11054 net.cpp:150] Setting up loss2/relu_conv
I1108 14:33:51.883033 11054 net.cpp:157] Top shape: 32 128 4 4 (65536)
I1108 14:33:51.883038 11054 net.cpp:165] Memory required for data: 1610822660
I1108 14:33:51.883043 11054 layer_factory.hpp:77] Creating layer loss2/fc
I1108 14:33:51.883054 11054 net.cpp:100] Creating Layer loss2/fc
I1108 14:33:51.883059 11054 net.cpp:434] loss2/fc <- loss2/conv
I1108 14:33:51.883066 11054 net.cpp:408] loss2/fc -> loss2/fc
I1108 14:33:51.905721 11054 net.cpp:150] Setting up loss2/fc
I1108 14:33:51.905746 11054 net.cpp:157] Top shape: 32 1024 (32768)
I1108 14:33:51.905751 11054 net.cpp:165] Memory required for data: 1610953732
I1108 14:33:51.905761 11054 layer_factory.hpp:77] Creating layer loss2/relu_fc
I1108 14:33:51.905769 11054 net.cpp:100] Creating Layer loss2/relu_fc
I1108 14:33:51.905776 11054 net.cpp:434] loss2/relu_fc <- loss2/fc
I1108 14:33:51.905786 11054 net.cpp:395] loss2/relu_fc -> loss2/fc (in-place)
I1108 14:33:51.906232 11054 net.cpp:150] Setting up loss2/relu_fc
I1108 14:33:51.906249 11054 net.cpp:157] Top shape: 32 1024 (32768)
I1108 14:33:51.906253 11054 net.cpp:165] Memory required for data: 1611084804
I1108 14:33:51.906258 11054 layer_factory.hpp:77] Creating layer loss2/drop_fc
I1108 14:33:51.906267 11054 net.cpp:100] Creating Layer loss2/drop_fc
I1108 14:33:51.906273 11054 net.cpp:434] loss2/drop_fc <- loss2/fc
I1108 14:33:51.906282 11054 net.cpp:395] loss2/drop_fc -> loss2/fc (in-place)
I1108 14:33:51.906322 11054 net.cpp:150] Setting up loss2/drop_fc
I1108 14:33:51.906335 11054 net.cpp:157] Top shape: 32 1024 (32768)
I1108 14:33:51.906339 11054 net.cpp:165] Memory required for data: 1611215876
I1108 14:33:51.906344 11054 layer_factory.hpp:77] Creating layer loss2/classifier
I1108 14:33:51.906353 11054 net.cpp:100] Creating Layer loss2/classifier
I1108 14:33:51.906358 11054 net.cpp:434] loss2/classifier <- loss2/fc
I1108 14:33:51.906368 11054 net.cpp:408] loss2/classifier -> loss2/classifier
I1108 14:33:51.908432 11054 net.cpp:150] Setting up loss2/classifier
I1108 14:33:51.908448 11054 net.cpp:157] Top shape: 32 100 (3200)
I1108 14:33:51.908453 11054 net.cpp:165] Memory required for data: 1611228676
I1108 14:33:51.908462 11054 layer_factory.hpp:77] Creating layer loss2/loss
I1108 14:33:51.908475 11054 net.cpp:100] Creating Layer loss2/loss
I1108 14:33:51.908490 11054 net.cpp:434] loss2/loss <- loss2/classifier
I1108 14:33:51.908498 11054 net.cpp:434] loss2/loss <- label_data_1_split_1
I1108 14:33:51.908506 11054 net.cpp:408] loss2/loss -> loss2/loss1
I1108 14:33:51.908519 11054 layer_factory.hpp:77] Creating layer loss2/loss
I1108 14:33:51.908854 11054 net.cpp:150] Setting up loss2/loss
I1108 14:33:51.908869 11054 net.cpp:157] Top shape: (1)
I1108 14:33:51.908874 11054 net.cpp:160]     with loss weight 0.3
I1108 14:33:51.908885 11054 net.cpp:165] Memory required for data: 1611228680
I1108 14:33:51.908890 11054 layer_factory.hpp:77] Creating layer inception_4e/1x1
I1108 14:33:51.908900 11054 net.cpp:100] Creating Layer inception_4e/1x1
I1108 14:33:51.908906 11054 net.cpp:434] inception_4e/1x1 <- inception_4d/output_inception_4d/output_0_split_1
I1108 14:33:51.908918 11054 net.cpp:408] inception_4e/1x1 -> inception_4e/1x1
I1108 14:33:51.911388 11054 net.cpp:150] Setting up inception_4e/1x1
I1108 14:33:51.911406 11054 net.cpp:157] Top shape: 32 256 14 14 (1605632)
I1108 14:33:51.911412 11054 net.cpp:165] Memory required for data: 1617651208
I1108 14:33:51.911420 11054 layer_factory.hpp:77] Creating layer inception_4e/relu_1x1
I1108 14:33:51.911428 11054 net.cpp:100] Creating Layer inception_4e/relu_1x1
I1108 14:33:51.911434 11054 net.cpp:434] inception_4e/relu_1x1 <- inception_4e/1x1
I1108 14:33:51.911447 11054 net.cpp:395] inception_4e/relu_1x1 -> inception_4e/1x1 (in-place)
I1108 14:33:51.911664 11054 net.cpp:150] Setting up inception_4e/relu_1x1
I1108 14:33:51.911676 11054 net.cpp:157] Top shape: 32 256 14 14 (1605632)
I1108 14:33:51.911681 11054 net.cpp:165] Memory required for data: 1624073736
I1108 14:33:51.911686 11054 layer_factory.hpp:77] Creating layer inception_4e/3x3_reduce
I1108 14:33:51.911698 11054 net.cpp:100] Creating Layer inception_4e/3x3_reduce
I1108 14:33:51.911705 11054 net.cpp:434] inception_4e/3x3_reduce <- inception_4d/output_inception_4d/output_0_split_2
I1108 14:33:51.911713 11054 net.cpp:408] inception_4e/3x3_reduce -> inception_4e/3x3_reduce
I1108 14:33:51.913815 11054 net.cpp:150] Setting up inception_4e/3x3_reduce
I1108 14:33:51.913835 11054 net.cpp:157] Top shape: 32 160 14 14 (1003520)
I1108 14:33:51.913839 11054 net.cpp:165] Memory required for data: 1628087816
I1108 14:33:51.913848 11054 layer_factory.hpp:77] Creating layer inception_4e/relu_3x3_reduce
I1108 14:33:51.913858 11054 net.cpp:100] Creating Layer inception_4e/relu_3x3_reduce
I1108 14:33:51.913866 11054 net.cpp:434] inception_4e/relu_3x3_reduce <- inception_4e/3x3_reduce
I1108 14:33:51.913872 11054 net.cpp:395] inception_4e/relu_3x3_reduce -> inception_4e/3x3_reduce (in-place)
I1108 14:33:51.914302 11054 net.cpp:150] Setting up inception_4e/relu_3x3_reduce
I1108 14:33:51.914319 11054 net.cpp:157] Top shape: 32 160 14 14 (1003520)
I1108 14:33:51.914324 11054 net.cpp:165] Memory required for data: 1632101896
I1108 14:33:51.914330 11054 layer_factory.hpp:77] Creating layer inception_4e/3x3
I1108 14:33:51.914343 11054 net.cpp:100] Creating Layer inception_4e/3x3
I1108 14:33:51.914350 11054 net.cpp:434] inception_4e/3x3 <- inception_4e/3x3_reduce
I1108 14:33:51.914358 11054 net.cpp:408] inception_4e/3x3 -> inception_4e/3x3
I1108 14:33:51.921028 11054 net.cpp:150] Setting up inception_4e/3x3
I1108 14:33:51.921049 11054 net.cpp:157] Top shape: 32 320 14 14 (2007040)
I1108 14:33:51.921056 11054 net.cpp:165] Memory required for data: 1640130056
I1108 14:33:51.921064 11054 layer_factory.hpp:77] Creating layer inception_4e/relu_3x3
I1108 14:33:51.921073 11054 net.cpp:100] Creating Layer inception_4e/relu_3x3
I1108 14:33:51.921079 11054 net.cpp:434] inception_4e/relu_3x3 <- inception_4e/3x3
I1108 14:33:51.921087 11054 net.cpp:395] inception_4e/relu_3x3 -> inception_4e/3x3 (in-place)
I1108 14:33:51.921317 11054 net.cpp:150] Setting up inception_4e/relu_3x3
I1108 14:33:51.921330 11054 net.cpp:157] Top shape: 32 320 14 14 (2007040)
I1108 14:33:51.921334 11054 net.cpp:165] Memory required for data: 1648158216
I1108 14:33:51.921344 11054 layer_factory.hpp:77] Creating layer inception_4e/5x5_reduce
I1108 14:33:51.921363 11054 net.cpp:100] Creating Layer inception_4e/5x5_reduce
I1108 14:33:51.921371 11054 net.cpp:434] inception_4e/5x5_reduce <- inception_4d/output_inception_4d/output_0_split_3
I1108 14:33:51.921381 11054 net.cpp:408] inception_4e/5x5_reduce -> inception_4e/5x5_reduce
I1108 14:33:51.922931 11054 net.cpp:150] Setting up inception_4e/5x5_reduce
I1108 14:33:51.922951 11054 net.cpp:157] Top shape: 32 32 14 14 (200704)
I1108 14:33:51.922956 11054 net.cpp:165] Memory required for data: 1648961032
I1108 14:33:51.922966 11054 layer_factory.hpp:77] Creating layer inception_4e/relu_5x5_reduce
I1108 14:33:51.922974 11054 net.cpp:100] Creating Layer inception_4e/relu_5x5_reduce
I1108 14:33:51.922981 11054 net.cpp:434] inception_4e/relu_5x5_reduce <- inception_4e/5x5_reduce
I1108 14:33:51.922987 11054 net.cpp:395] inception_4e/relu_5x5_reduce -> inception_4e/5x5_reduce (in-place)
I1108 14:33:51.923213 11054 net.cpp:150] Setting up inception_4e/relu_5x5_reduce
I1108 14:33:51.923225 11054 net.cpp:157] Top shape: 32 32 14 14 (200704)
I1108 14:33:51.923230 11054 net.cpp:165] Memory required for data: 1649763848
I1108 14:33:51.923235 11054 layer_factory.hpp:77] Creating layer inception_4e/5x5
I1108 14:33:51.923269 11054 net.cpp:100] Creating Layer inception_4e/5x5
I1108 14:33:51.923276 11054 net.cpp:434] inception_4e/5x5 <- inception_4e/5x5_reduce
I1108 14:33:51.923285 11054 net.cpp:408] inception_4e/5x5 -> inception_4e/5x5
I1108 14:33:51.927026 11054 net.cpp:150] Setting up inception_4e/5x5
I1108 14:33:51.927045 11054 net.cpp:157] Top shape: 32 128 14 14 (802816)
I1108 14:33:51.927050 11054 net.cpp:165] Memory required for data: 1652975112
I1108 14:33:51.927060 11054 layer_factory.hpp:77] Creating layer inception_4e/relu_5x5
I1108 14:33:51.927068 11054 net.cpp:100] Creating Layer inception_4e/relu_5x5
I1108 14:33:51.927074 11054 net.cpp:434] inception_4e/relu_5x5 <- inception_4e/5x5
I1108 14:33:51.927081 11054 net.cpp:395] inception_4e/relu_5x5 -> inception_4e/5x5 (in-place)
I1108 14:33:51.927523 11054 net.cpp:150] Setting up inception_4e/relu_5x5
I1108 14:33:51.927541 11054 net.cpp:157] Top shape: 32 128 14 14 (802816)
I1108 14:33:51.927546 11054 net.cpp:165] Memory required for data: 1656186376
I1108 14:33:51.927551 11054 layer_factory.hpp:77] Creating layer inception_4e/pool
I1108 14:33:51.927559 11054 net.cpp:100] Creating Layer inception_4e/pool
I1108 14:33:51.927566 11054 net.cpp:434] inception_4e/pool <- inception_4d/output_inception_4d/output_0_split_4
I1108 14:33:51.927574 11054 net.cpp:408] inception_4e/pool -> inception_4e/pool
I1108 14:33:51.927640 11054 net.cpp:150] Setting up inception_4e/pool
I1108 14:33:51.927650 11054 net.cpp:157] Top shape: 32 528 14 14 (3311616)
I1108 14:33:51.927654 11054 net.cpp:165] Memory required for data: 1669432840
I1108 14:33:51.927659 11054 layer_factory.hpp:77] Creating layer inception_4e/pool_proj
I1108 14:33:51.927675 11054 net.cpp:100] Creating Layer inception_4e/pool_proj
I1108 14:33:51.927681 11054 net.cpp:434] inception_4e/pool_proj <- inception_4e/pool
I1108 14:33:51.927690 11054 net.cpp:408] inception_4e/pool_proj -> inception_4e/pool_proj
I1108 14:33:51.929630 11054 net.cpp:150] Setting up inception_4e/pool_proj
I1108 14:33:51.929646 11054 net.cpp:157] Top shape: 32 128 14 14 (802816)
I1108 14:33:51.929652 11054 net.cpp:165] Memory required for data: 1672644104
I1108 14:33:51.929661 11054 layer_factory.hpp:77] Creating layer inception_4e/relu_pool_proj
I1108 14:33:51.929671 11054 net.cpp:100] Creating Layer inception_4e/relu_pool_proj
I1108 14:33:51.929677 11054 net.cpp:434] inception_4e/relu_pool_proj <- inception_4e/pool_proj
I1108 14:33:51.929684 11054 net.cpp:395] inception_4e/relu_pool_proj -> inception_4e/pool_proj (in-place)
I1108 14:33:51.929899 11054 net.cpp:150] Setting up inception_4e/relu_pool_proj
I1108 14:33:51.929913 11054 net.cpp:157] Top shape: 32 128 14 14 (802816)
I1108 14:33:51.929918 11054 net.cpp:165] Memory required for data: 1675855368
I1108 14:33:51.929922 11054 layer_factory.hpp:77] Creating layer inception_4e/output
I1108 14:33:51.929942 11054 net.cpp:100] Creating Layer inception_4e/output
I1108 14:33:51.929949 11054 net.cpp:434] inception_4e/output <- inception_4e/1x1
I1108 14:33:51.929955 11054 net.cpp:434] inception_4e/output <- inception_4e/3x3
I1108 14:33:51.929960 11054 net.cpp:434] inception_4e/output <- inception_4e/5x5
I1108 14:33:51.929965 11054 net.cpp:434] inception_4e/output <- inception_4e/pool_proj
I1108 14:33:51.929972 11054 net.cpp:408] inception_4e/output -> inception_4e/output
I1108 14:33:51.930016 11054 net.cpp:150] Setting up inception_4e/output
I1108 14:33:51.930025 11054 net.cpp:157] Top shape: 32 832 14 14 (5218304)
I1108 14:33:51.930029 11054 net.cpp:165] Memory required for data: 1696728584
I1108 14:33:51.930034 11054 layer_factory.hpp:77] Creating layer pool4/3x3_s2
I1108 14:33:51.930043 11054 net.cpp:100] Creating Layer pool4/3x3_s2
I1108 14:33:51.930049 11054 net.cpp:434] pool4/3x3_s2 <- inception_4e/output
I1108 14:33:51.930057 11054 net.cpp:408] pool4/3x3_s2 -> pool4/3x3_s2
I1108 14:33:51.930114 11054 net.cpp:150] Setting up pool4/3x3_s2
I1108 14:33:51.930124 11054 net.cpp:157] Top shape: 32 832 7 7 (1304576)
I1108 14:33:51.930127 11054 net.cpp:165] Memory required for data: 1701946888
I1108 14:33:51.930131 11054 layer_factory.hpp:77] Creating layer pool4/3x3_s2_pool4/3x3_s2_0_split
I1108 14:33:51.930140 11054 net.cpp:100] Creating Layer pool4/3x3_s2_pool4/3x3_s2_0_split
I1108 14:33:51.930145 11054 net.cpp:434] pool4/3x3_s2_pool4/3x3_s2_0_split <- pool4/3x3_s2
I1108 14:33:51.930153 11054 net.cpp:408] pool4/3x3_s2_pool4/3x3_s2_0_split -> pool4/3x3_s2_pool4/3x3_s2_0_split_0
I1108 14:33:51.930161 11054 net.cpp:408] pool4/3x3_s2_pool4/3x3_s2_0_split -> pool4/3x3_s2_pool4/3x3_s2_0_split_1
I1108 14:33:51.930169 11054 net.cpp:408] pool4/3x3_s2_pool4/3x3_s2_0_split -> pool4/3x3_s2_pool4/3x3_s2_0_split_2
I1108 14:33:51.930176 11054 net.cpp:408] pool4/3x3_s2_pool4/3x3_s2_0_split -> pool4/3x3_s2_pool4/3x3_s2_0_split_3
I1108 14:33:51.930263 11054 net.cpp:150] Setting up pool4/3x3_s2_pool4/3x3_s2_0_split
I1108 14:33:51.930274 11054 net.cpp:157] Top shape: 32 832 7 7 (1304576)
I1108 14:33:51.930280 11054 net.cpp:157] Top shape: 32 832 7 7 (1304576)
I1108 14:33:51.930285 11054 net.cpp:157] Top shape: 32 832 7 7 (1304576)
I1108 14:33:51.930290 11054 net.cpp:157] Top shape: 32 832 7 7 (1304576)
I1108 14:33:51.930294 11054 net.cpp:165] Memory required for data: 1722820104
I1108 14:33:51.930299 11054 layer_factory.hpp:77] Creating layer inception_5a/1x1
I1108 14:33:51.930311 11054 net.cpp:100] Creating Layer inception_5a/1x1
I1108 14:33:51.930317 11054 net.cpp:434] inception_5a/1x1 <- pool4/3x3_s2_pool4/3x3_s2_0_split_0
I1108 14:33:51.930325 11054 net.cpp:408] inception_5a/1x1 -> inception_5a/1x1
I1108 14:33:51.934517 11054 net.cpp:150] Setting up inception_5a/1x1
I1108 14:33:51.934536 11054 net.cpp:157] Top shape: 32 256 7 7 (401408)
I1108 14:33:51.934542 11054 net.cpp:165] Memory required for data: 1724425736
I1108 14:33:51.934551 11054 layer_factory.hpp:77] Creating layer inception_5a/relu_1x1
I1108 14:33:51.934561 11054 net.cpp:100] Creating Layer inception_5a/relu_1x1
I1108 14:33:51.934567 11054 net.cpp:434] inception_5a/relu_1x1 <- inception_5a/1x1
I1108 14:33:51.934574 11054 net.cpp:395] inception_5a/relu_1x1 -> inception_5a/1x1 (in-place)
I1108 14:33:51.934790 11054 net.cpp:150] Setting up inception_5a/relu_1x1
I1108 14:33:51.934804 11054 net.cpp:157] Top shape: 32 256 7 7 (401408)
I1108 14:33:51.934809 11054 net.cpp:165] Memory required for data: 1726031368
I1108 14:33:51.934814 11054 layer_factory.hpp:77] Creating layer inception_5a/3x3_reduce
I1108 14:33:51.934828 11054 net.cpp:100] Creating Layer inception_5a/3x3_reduce
I1108 14:33:51.934834 11054 net.cpp:434] inception_5a/3x3_reduce <- pool4/3x3_s2_pool4/3x3_s2_0_split_1
I1108 14:33:51.934841 11054 net.cpp:408] inception_5a/3x3_reduce -> inception_5a/3x3_reduce
I1108 14:33:51.938437 11054 net.cpp:150] Setting up inception_5a/3x3_reduce
I1108 14:33:51.938455 11054 net.cpp:157] Top shape: 32 160 7 7 (250880)
I1108 14:33:51.938464 11054 net.cpp:165] Memory required for data: 1727034888
I1108 14:33:51.938484 11054 layer_factory.hpp:77] Creating layer inception_5a/relu_3x3_reduce
I1108 14:33:51.938494 11054 net.cpp:100] Creating Layer inception_5a/relu_3x3_reduce
I1108 14:33:51.938501 11054 net.cpp:434] inception_5a/relu_3x3_reduce <- inception_5a/3x3_reduce
I1108 14:33:51.938508 11054 net.cpp:395] inception_5a/relu_3x3_reduce -> inception_5a/3x3_reduce (in-place)
I1108 14:33:51.939997 11054 net.cpp:150] Setting up inception_5a/relu_3x3_reduce
I1108 14:33:51.940014 11054 net.cpp:157] Top shape: 32 160 7 7 (250880)
I1108 14:33:51.940019 11054 net.cpp:165] Memory required for data: 1728038408
I1108 14:33:51.940024 11054 layer_factory.hpp:77] Creating layer inception_5a/3x3
I1108 14:33:51.940038 11054 net.cpp:100] Creating Layer inception_5a/3x3
I1108 14:33:51.940044 11054 net.cpp:434] inception_5a/3x3 <- inception_5a/3x3_reduce
I1108 14:33:51.940055 11054 net.cpp:408] inception_5a/3x3 -> inception_5a/3x3
I1108 14:33:51.946751 11054 net.cpp:150] Setting up inception_5a/3x3
I1108 14:33:51.946770 11054 net.cpp:157] Top shape: 32 320 7 7 (501760)
I1108 14:33:51.946776 11054 net.cpp:165] Memory required for data: 1730045448
I1108 14:33:51.946785 11054 layer_factory.hpp:77] Creating layer inception_5a/relu_3x3
I1108 14:33:51.946794 11054 net.cpp:100] Creating Layer inception_5a/relu_3x3
I1108 14:33:51.946799 11054 net.cpp:434] inception_5a/relu_3x3 <- inception_5a/3x3
I1108 14:33:51.946808 11054 net.cpp:395] inception_5a/relu_3x3 -> inception_5a/3x3 (in-place)
I1108 14:33:51.947031 11054 net.cpp:150] Setting up inception_5a/relu_3x3
I1108 14:33:51.947044 11054 net.cpp:157] Top shape: 32 320 7 7 (501760)
I1108 14:33:51.947049 11054 net.cpp:165] Memory required for data: 1732052488
I1108 14:33:51.947054 11054 layer_factory.hpp:77] Creating layer inception_5a/5x5_reduce
I1108 14:33:51.947067 11054 net.cpp:100] Creating Layer inception_5a/5x5_reduce
I1108 14:33:51.947072 11054 net.cpp:434] inception_5a/5x5_reduce <- pool4/3x3_s2_pool4/3x3_s2_0_split_2
I1108 14:33:51.947082 11054 net.cpp:408] inception_5a/5x5_reduce -> inception_5a/5x5_reduce
I1108 14:33:51.948753 11054 net.cpp:150] Setting up inception_5a/5x5_reduce
I1108 14:33:51.948771 11054 net.cpp:157] Top shape: 32 32 7 7 (50176)
I1108 14:33:51.948776 11054 net.cpp:165] Memory required for data: 1732253192
I1108 14:33:51.948786 11054 layer_factory.hpp:77] Creating layer inception_5a/relu_5x5_reduce
I1108 14:33:51.948796 11054 net.cpp:100] Creating Layer inception_5a/relu_5x5_reduce
I1108 14:33:51.948802 11054 net.cpp:434] inception_5a/relu_5x5_reduce <- inception_5a/5x5_reduce
I1108 14:33:51.948809 11054 net.cpp:395] inception_5a/relu_5x5_reduce -> inception_5a/5x5_reduce (in-place)
I1108 14:33:51.949030 11054 net.cpp:150] Setting up inception_5a/relu_5x5_reduce
I1108 14:33:51.949043 11054 net.cpp:157] Top shape: 32 32 7 7 (50176)
I1108 14:33:51.949048 11054 net.cpp:165] Memory required for data: 1732453896
I1108 14:33:51.949053 11054 layer_factory.hpp:77] Creating layer inception_5a/5x5
I1108 14:33:51.949064 11054 net.cpp:100] Creating Layer inception_5a/5x5
I1108 14:33:51.949071 11054 net.cpp:434] inception_5a/5x5 <- inception_5a/5x5_reduce
I1108 14:33:51.949081 11054 net.cpp:408] inception_5a/5x5 -> inception_5a/5x5
I1108 14:33:51.951306 11054 net.cpp:150] Setting up inception_5a/5x5
I1108 14:33:51.951326 11054 net.cpp:157] Top shape: 32 128 7 7 (200704)
I1108 14:33:51.951333 11054 net.cpp:165] Memory required for data: 1733256712
I1108 14:33:51.951341 11054 layer_factory.hpp:77] Creating layer inception_5a/relu_5x5
I1108 14:33:51.951349 11054 net.cpp:100] Creating Layer inception_5a/relu_5x5
I1108 14:33:51.951355 11054 net.cpp:434] inception_5a/relu_5x5 <- inception_5a/5x5
I1108 14:33:51.951364 11054 net.cpp:395] inception_5a/relu_5x5 -> inception_5a/5x5 (in-place)
I1108 14:33:51.951797 11054 net.cpp:150] Setting up inception_5a/relu_5x5
I1108 14:33:51.951815 11054 net.cpp:157] Top shape: 32 128 7 7 (200704)
I1108 14:33:51.951820 11054 net.cpp:165] Memory required for data: 1734059528
I1108 14:33:51.951830 11054 layer_factory.hpp:77] Creating layer inception_5a/pool
I1108 14:33:51.951845 11054 net.cpp:100] Creating Layer inception_5a/pool
I1108 14:33:51.951851 11054 net.cpp:434] inception_5a/pool <- pool4/3x3_s2_pool4/3x3_s2_0_split_3
I1108 14:33:51.951859 11054 net.cpp:408] inception_5a/pool -> inception_5a/pool
I1108 14:33:51.951927 11054 net.cpp:150] Setting up inception_5a/pool
I1108 14:33:51.951938 11054 net.cpp:157] Top shape: 32 832 7 7 (1304576)
I1108 14:33:51.951942 11054 net.cpp:165] Memory required for data: 1739277832
I1108 14:33:51.951947 11054 layer_factory.hpp:77] Creating layer inception_5a/pool_proj
I1108 14:33:51.951959 11054 net.cpp:100] Creating Layer inception_5a/pool_proj
I1108 14:33:51.951966 11054 net.cpp:434] inception_5a/pool_proj <- inception_5a/pool
I1108 14:33:51.951975 11054 net.cpp:408] inception_5a/pool_proj -> inception_5a/pool_proj
I1108 14:33:51.955385 11054 net.cpp:150] Setting up inception_5a/pool_proj
I1108 14:33:51.955404 11054 net.cpp:157] Top shape: 32 128 7 7 (200704)
I1108 14:33:51.955410 11054 net.cpp:165] Memory required for data: 1740080648
I1108 14:33:51.955420 11054 layer_factory.hpp:77] Creating layer inception_5a/relu_pool_proj
I1108 14:33:51.955427 11054 net.cpp:100] Creating Layer inception_5a/relu_pool_proj
I1108 14:33:51.955433 11054 net.cpp:434] inception_5a/relu_pool_proj <- inception_5a/pool_proj
I1108 14:33:51.955443 11054 net.cpp:395] inception_5a/relu_pool_proj -> inception_5a/pool_proj (in-place)
I1108 14:33:51.955667 11054 net.cpp:150] Setting up inception_5a/relu_pool_proj
I1108 14:33:51.955679 11054 net.cpp:157] Top shape: 32 128 7 7 (200704)
I1108 14:33:51.955685 11054 net.cpp:165] Memory required for data: 1740883464
I1108 14:33:51.955690 11054 layer_factory.hpp:77] Creating layer inception_5a/output
I1108 14:33:51.955698 11054 net.cpp:100] Creating Layer inception_5a/output
I1108 14:33:51.955703 11054 net.cpp:434] inception_5a/output <- inception_5a/1x1
I1108 14:33:51.955710 11054 net.cpp:434] inception_5a/output <- inception_5a/3x3
I1108 14:33:51.955715 11054 net.cpp:434] inception_5a/output <- inception_5a/5x5
I1108 14:33:51.955721 11054 net.cpp:434] inception_5a/output <- inception_5a/pool_proj
I1108 14:33:51.955729 11054 net.cpp:408] inception_5a/output -> inception_5a/output
I1108 14:33:51.955771 11054 net.cpp:150] Setting up inception_5a/output
I1108 14:33:51.955781 11054 net.cpp:157] Top shape: 32 832 7 7 (1304576)
I1108 14:33:51.955785 11054 net.cpp:165] Memory required for data: 1746101768
I1108 14:33:51.955790 11054 layer_factory.hpp:77] Creating layer inception_5a/output_inception_5a/output_0_split
I1108 14:33:51.955797 11054 net.cpp:100] Creating Layer inception_5a/output_inception_5a/output_0_split
I1108 14:33:51.955802 11054 net.cpp:434] inception_5a/output_inception_5a/output_0_split <- inception_5a/output
I1108 14:33:51.955811 11054 net.cpp:408] inception_5a/output_inception_5a/output_0_split -> inception_5a/output_inception_5a/output_0_split_0
I1108 14:33:51.955821 11054 net.cpp:408] inception_5a/output_inception_5a/output_0_split -> inception_5a/output_inception_5a/output_0_split_1
I1108 14:33:51.955828 11054 net.cpp:408] inception_5a/output_inception_5a/output_0_split -> inception_5a/output_inception_5a/output_0_split_2
I1108 14:33:51.955837 11054 net.cpp:408] inception_5a/output_inception_5a/output_0_split -> inception_5a/output_inception_5a/output_0_split_3
I1108 14:33:51.955926 11054 net.cpp:150] Setting up inception_5a/output_inception_5a/output_0_split
I1108 14:33:51.955936 11054 net.cpp:157] Top shape: 32 832 7 7 (1304576)
I1108 14:33:51.955942 11054 net.cpp:157] Top shape: 32 832 7 7 (1304576)
I1108 14:33:51.955947 11054 net.cpp:157] Top shape: 32 832 7 7 (1304576)
I1108 14:33:51.955952 11054 net.cpp:157] Top shape: 32 832 7 7 (1304576)
I1108 14:33:51.955956 11054 net.cpp:165] Memory required for data: 1766974984
I1108 14:33:51.955961 11054 layer_factory.hpp:77] Creating layer inception_5b/1x1
I1108 14:33:51.955973 11054 net.cpp:100] Creating Layer inception_5b/1x1
I1108 14:33:51.955979 11054 net.cpp:434] inception_5b/1x1 <- inception_5a/output_inception_5a/output_0_split_0
I1108 14:33:51.955998 11054 net.cpp:408] inception_5b/1x1 -> inception_5b/1x1
I1108 14:33:51.961652 11054 net.cpp:150] Setting up inception_5b/1x1
I1108 14:33:51.961673 11054 net.cpp:157] Top shape: 32 384 7 7 (602112)
I1108 14:33:51.961678 11054 net.cpp:165] Memory required for data: 1769383432
I1108 14:33:51.961686 11054 layer_factory.hpp:77] Creating layer inception_5b/relu_1x1
I1108 14:33:51.961695 11054 net.cpp:100] Creating Layer inception_5b/relu_1x1
I1108 14:33:51.961701 11054 net.cpp:434] inception_5b/relu_1x1 <- inception_5b/1x1
I1108 14:33:51.961710 11054 net.cpp:395] inception_5b/relu_1x1 -> inception_5b/1x1 (in-place)
I1108 14:33:51.961930 11054 net.cpp:150] Setting up inception_5b/relu_1x1
I1108 14:33:51.961943 11054 net.cpp:157] Top shape: 32 384 7 7 (602112)
I1108 14:33:51.961949 11054 net.cpp:165] Memory required for data: 1771791880
I1108 14:33:51.961954 11054 layer_factory.hpp:77] Creating layer inception_5b/3x3_reduce
I1108 14:33:51.961966 11054 net.cpp:100] Creating Layer inception_5b/3x3_reduce
I1108 14:33:51.961971 11054 net.cpp:434] inception_5b/3x3_reduce <- inception_5a/output_inception_5a/output_0_split_1
I1108 14:33:51.961982 11054 net.cpp:408] inception_5b/3x3_reduce -> inception_5b/3x3_reduce
I1108 14:33:51.965809 11054 net.cpp:150] Setting up inception_5b/3x3_reduce
I1108 14:33:51.965828 11054 net.cpp:157] Top shape: 32 192 7 7 (301056)
I1108 14:33:51.965833 11054 net.cpp:165] Memory required for data: 1772996104
I1108 14:33:51.965842 11054 layer_factory.hpp:77] Creating layer inception_5b/relu_3x3_reduce
I1108 14:33:51.965853 11054 net.cpp:100] Creating Layer inception_5b/relu_3x3_reduce
I1108 14:33:51.965859 11054 net.cpp:434] inception_5b/relu_3x3_reduce <- inception_5b/3x3_reduce
I1108 14:33:51.965867 11054 net.cpp:395] inception_5b/relu_3x3_reduce -> inception_5b/3x3_reduce (in-place)
I1108 14:33:51.966305 11054 net.cpp:150] Setting up inception_5b/relu_3x3_reduce
I1108 14:33:51.966320 11054 net.cpp:157] Top shape: 32 192 7 7 (301056)
I1108 14:33:51.966326 11054 net.cpp:165] Memory required for data: 1774200328
I1108 14:33:51.966332 11054 layer_factory.hpp:77] Creating layer inception_5b/3x3
I1108 14:33:51.966343 11054 net.cpp:100] Creating Layer inception_5b/3x3
I1108 14:33:51.966349 11054 net.cpp:434] inception_5b/3x3 <- inception_5b/3x3_reduce
I1108 14:33:51.966359 11054 net.cpp:408] inception_5b/3x3 -> inception_5b/3x3
I1108 14:33:51.975235 11054 net.cpp:150] Setting up inception_5b/3x3
I1108 14:33:51.975257 11054 net.cpp:157] Top shape: 32 384 7 7 (602112)
I1108 14:33:51.975263 11054 net.cpp:165] Memory required for data: 1776608776
I1108 14:33:51.975272 11054 layer_factory.hpp:77] Creating layer inception_5b/relu_3x3
I1108 14:33:51.975281 11054 net.cpp:100] Creating Layer inception_5b/relu_3x3
I1108 14:33:51.975287 11054 net.cpp:434] inception_5b/relu_3x3 <- inception_5b/3x3
I1108 14:33:51.975294 11054 net.cpp:395] inception_5b/relu_3x3 -> inception_5b/3x3 (in-place)
I1108 14:33:51.975517 11054 net.cpp:150] Setting up inception_5b/relu_3x3
I1108 14:33:51.975529 11054 net.cpp:157] Top shape: 32 384 7 7 (602112)
I1108 14:33:51.975534 11054 net.cpp:165] Memory required for data: 1779017224
I1108 14:33:51.975539 11054 layer_factory.hpp:77] Creating layer inception_5b/5x5_reduce
I1108 14:33:51.975551 11054 net.cpp:100] Creating Layer inception_5b/5x5_reduce
I1108 14:33:51.975558 11054 net.cpp:434] inception_5b/5x5_reduce <- inception_5a/output_inception_5a/output_0_split_2
I1108 14:33:51.975570 11054 net.cpp:408] inception_5b/5x5_reduce -> inception_5b/5x5_reduce
I1108 14:33:51.978562 11054 net.cpp:150] Setting up inception_5b/5x5_reduce
I1108 14:33:51.978581 11054 net.cpp:157] Top shape: 32 48 7 7 (75264)
I1108 14:33:51.978587 11054 net.cpp:165] Memory required for data: 1779318280
I1108 14:33:51.978596 11054 layer_factory.hpp:77] Creating layer inception_5b/relu_5x5_reduce
I1108 14:33:51.978605 11054 net.cpp:100] Creating Layer inception_5b/relu_5x5_reduce
I1108 14:33:51.978610 11054 net.cpp:434] inception_5b/relu_5x5_reduce <- inception_5b/5x5_reduce
I1108 14:33:51.978631 11054 net.cpp:395] inception_5b/relu_5x5_reduce -> inception_5b/5x5_reduce (in-place)
I1108 14:33:51.978858 11054 net.cpp:150] Setting up inception_5b/relu_5x5_reduce
I1108 14:33:51.978870 11054 net.cpp:157] Top shape: 32 48 7 7 (75264)
I1108 14:33:51.978875 11054 net.cpp:165] Memory required for data: 1779619336
I1108 14:33:51.978880 11054 layer_factory.hpp:77] Creating layer inception_5b/5x5
I1108 14:33:51.978894 11054 net.cpp:100] Creating Layer inception_5b/5x5
I1108 14:33:51.978900 11054 net.cpp:434] inception_5b/5x5 <- inception_5b/5x5_reduce
I1108 14:33:51.978910 11054 net.cpp:408] inception_5b/5x5 -> inception_5b/5x5
I1108 14:33:51.981570 11054 net.cpp:150] Setting up inception_5b/5x5
I1108 14:33:51.981590 11054 net.cpp:157] Top shape: 32 128 7 7 (200704)
I1108 14:33:51.981595 11054 net.cpp:165] Memory required for data: 1780422152
I1108 14:33:51.981603 11054 layer_factory.hpp:77] Creating layer inception_5b/relu_5x5
I1108 14:33:51.981613 11054 net.cpp:100] Creating Layer inception_5b/relu_5x5
I1108 14:33:51.981619 11054 net.cpp:434] inception_5b/relu_5x5 <- inception_5b/5x5
I1108 14:33:51.981626 11054 net.cpp:395] inception_5b/relu_5x5 -> inception_5b/5x5 (in-place)
I1108 14:33:51.982064 11054 net.cpp:150] Setting up inception_5b/relu_5x5
I1108 14:33:51.982079 11054 net.cpp:157] Top shape: 32 128 7 7 (200704)
I1108 14:33:51.982084 11054 net.cpp:165] Memory required for data: 1781224968
I1108 14:33:51.982089 11054 layer_factory.hpp:77] Creating layer inception_5b/pool
I1108 14:33:51.982100 11054 net.cpp:100] Creating Layer inception_5b/pool
I1108 14:33:51.982105 11054 net.cpp:434] inception_5b/pool <- inception_5a/output_inception_5a/output_0_split_3
I1108 14:33:51.982113 11054 net.cpp:408] inception_5b/pool -> inception_5b/pool
I1108 14:33:51.982182 11054 net.cpp:150] Setting up inception_5b/pool
I1108 14:33:51.982197 11054 net.cpp:157] Top shape: 32 832 7 7 (1304576)
I1108 14:33:51.982201 11054 net.cpp:165] Memory required for data: 1786443272
I1108 14:33:51.982205 11054 layer_factory.hpp:77] Creating layer inception_5b/pool_proj
I1108 14:33:51.982218 11054 net.cpp:100] Creating Layer inception_5b/pool_proj
I1108 14:33:51.982224 11054 net.cpp:434] inception_5b/pool_proj <- inception_5b/pool
I1108 14:33:51.982234 11054 net.cpp:408] inception_5b/pool_proj -> inception_5b/pool_proj
I1108 14:33:51.985667 11054 net.cpp:150] Setting up inception_5b/pool_proj
I1108 14:33:51.985688 11054 net.cpp:157] Top shape: 32 128 7 7 (200704)
I1108 14:33:51.985694 11054 net.cpp:165] Memory required for data: 1787246088
I1108 14:33:51.985703 11054 layer_factory.hpp:77] Creating layer inception_5b/relu_pool_proj
I1108 14:33:51.985712 11054 net.cpp:100] Creating Layer inception_5b/relu_pool_proj
I1108 14:33:51.985718 11054 net.cpp:434] inception_5b/relu_pool_proj <- inception_5b/pool_proj
I1108 14:33:51.985724 11054 net.cpp:395] inception_5b/relu_pool_proj -> inception_5b/pool_proj (in-place)
I1108 14:33:51.985954 11054 net.cpp:150] Setting up inception_5b/relu_pool_proj
I1108 14:33:51.985965 11054 net.cpp:157] Top shape: 32 128 7 7 (200704)
I1108 14:33:51.985970 11054 net.cpp:165] Memory required for data: 1788048904
I1108 14:33:51.985975 11054 layer_factory.hpp:77] Creating layer inception_5b/output
I1108 14:33:51.985983 11054 net.cpp:100] Creating Layer inception_5b/output
I1108 14:33:51.985988 11054 net.cpp:434] inception_5b/output <- inception_5b/1x1
I1108 14:33:51.985996 11054 net.cpp:434] inception_5b/output <- inception_5b/3x3
I1108 14:33:51.986001 11054 net.cpp:434] inception_5b/output <- inception_5b/5x5
I1108 14:33:51.986006 11054 net.cpp:434] inception_5b/output <- inception_5b/pool_proj
I1108 14:33:51.986016 11054 net.cpp:408] inception_5b/output -> inception_5b/output
I1108 14:33:51.986058 11054 net.cpp:150] Setting up inception_5b/output
I1108 14:33:51.986070 11054 net.cpp:157] Top shape: 32 1024 7 7 (1605632)
I1108 14:33:51.986074 11054 net.cpp:165] Memory required for data: 1794471432
I1108 14:33:51.986079 11054 layer_factory.hpp:77] Creating layer pool5/7x7_s1
I1108 14:33:51.986090 11054 net.cpp:100] Creating Layer pool5/7x7_s1
I1108 14:33:51.986104 11054 net.cpp:434] pool5/7x7_s1 <- inception_5b/output
I1108 14:33:51.986111 11054 net.cpp:408] pool5/7x7_s1 -> pool5/7x7_s1
I1108 14:33:51.986582 11054 net.cpp:150] Setting up pool5/7x7_s1
I1108 14:33:51.986598 11054 net.cpp:157] Top shape: 32 1024 1 1 (32768)
I1108 14:33:51.986603 11054 net.cpp:165] Memory required for data: 1794602504
I1108 14:33:51.986608 11054 layer_factory.hpp:77] Creating layer pool5/drop_7x7_s1
I1108 14:33:51.986618 11054 net.cpp:100] Creating Layer pool5/drop_7x7_s1
I1108 14:33:51.986623 11054 net.cpp:434] pool5/drop_7x7_s1 <- pool5/7x7_s1
I1108 14:33:51.986631 11054 net.cpp:395] pool5/drop_7x7_s1 -> pool5/7x7_s1 (in-place)
I1108 14:33:51.986671 11054 net.cpp:150] Setting up pool5/drop_7x7_s1
I1108 14:33:51.986682 11054 net.cpp:157] Top shape: 32 1024 1 1 (32768)
I1108 14:33:51.986686 11054 net.cpp:165] Memory required for data: 1794733576
I1108 14:33:51.986691 11054 layer_factory.hpp:77] Creating layer loss3/classifier
I1108 14:33:51.986701 11054 net.cpp:100] Creating Layer loss3/classifier
I1108 14:33:51.986706 11054 net.cpp:434] loss3/classifier <- pool5/7x7_s1
I1108 14:33:51.986713 11054 net.cpp:408] loss3/classifier -> loss3/classifier
I1108 14:33:51.987684 11054 net.cpp:150] Setting up loss3/classifier
I1108 14:33:51.987696 11054 net.cpp:157] Top shape: 32 100 (3200)
I1108 14:33:51.987701 11054 net.cpp:165] Memory required for data: 1794746376
I1108 14:33:51.987709 11054 layer_factory.hpp:77] Creating layer loss3/loss3
I1108 14:33:51.987720 11054 net.cpp:100] Creating Layer loss3/loss3
I1108 14:33:51.987725 11054 net.cpp:434] loss3/loss3 <- loss3/classifier
I1108 14:33:51.987731 11054 net.cpp:434] loss3/loss3 <- label_data_1_split_2
I1108 14:33:51.987738 11054 net.cpp:408] loss3/loss3 -> loss3/loss3
…
I1108 14:33:51.993393 11054 net.cpp:322] The NetState phase (1) differed from the phase (0) specified by a rule in layer data
I1108 14:33:51.994395 11054 net.cpp:58] Initializing net from parameters: 
name: "GoogleNet"
state {
  phase: TEST
}
layer {
  name: "data"
  type: "ImageData"
  top: "data"
  top: "label"
  include {
    phase: TEST
  }
  transform_param {
    mirror: false
    crop_size: 224
    mean_value: 103.939
    mean_value: 116.779
    mean_value: 123.68
  }
  image_data_param {
    source: "test.list"
    batch_size: 25
    shuffle: false
    new_height: 256
    new_width: 256
    is_color: true
  }
}
layer {
  name: "conv1/7x7_s2"
  type: "Convolution"
  bottom: "data"
  top: "conv1/7x7_s2"
  param {
    lr_mult: 1
    decay_mult: 1
  }
  param {
    lr_mult: 2
    decay_mult: 0
  }
  convolution_param {
    num_output: 64
    pad: 3
    kernel_size: 7
    stride: 2
    weight_filler {
      type: "xavier"
    }
    bias_filler {
      type: "constant"
      value: 0.2
    }
  }
}
layer {
  name: "conv1/relu_7x7"
  type: "ReLU"
  bottom: "conv1/7x7_s2"
  top: "conv1/7x7_s2"
}
layer {
  name: "pool1/3x3_s2"
  type: "Pooling"
  bottom: "conv1/7x7_s2"
  top: "pool1/3x3_s2"
  pooling_param {
    pool: MAX
    kernel_size: 3
    stride: 2
  }
}
layer {
  name: "pool1/norm1"
  type: "LRN"
  bottom: "pool1/3x3_s2"
  top: "pool1/norm1"
  lrn_param {
    local_size: 5
    alpha: 0.0001
    beta: 0.75
  }
}
layer {
  name: "conv2/3x3_reduce"
  type: "Convolution"
  bottom: "pool1/norm1"
  top: "conv2/3x3_reduce"
  param {
    lr_mult: 1
    decay_mult: 1
  }
  param {
    lr_mult: 2
    decay_mult: 0
  }
  convolution_param {
    num_output: 64
    kernel_size: 1
    weight_filler {
      type: "xavier"
    }
    bias_filler {
      type: "constant"
      value: 0.2
    }
  }
}
layer {
  name: "conv2/relu_3x3_reduce"
  type: "ReLU"
  bottom: "conv2/3x3_reduce"
  top: "conv2/3x3_reduce"
}
layer {
  name: "conv2/3x3"
  type: "Convolution"
  bottom: "conv2/3x3_reduce"
  top: "conv2/3x3"
  param {
    lr_mult: 1
    decay_mult: 1
  }
  param {
    lr_mult: 2
    decay_mult: 0
  }
  convolution_param {
    num_output: 192
    pad: 1
    kernel_size: 3
    weight_filler {
      type: "xavier"
    }
    bias_filler {
      type: "constant"
      value: 0.2
    }
  }
}
layer {
  name: "conv2/relu_3x3"
  type: "ReLU"
  bottom: "conv2/3x3"
  top: "conv2/3x3"
}
layer {
  name: "conv2/norm2"
  type: "LRN"
  bottom: "conv2/3x3"
  top: "conv2/norm2"
  lrn_param {
    local_size: 5
    alpha: 0.0001
    beta: 0.75
  }
}
layer {
  name: "pool2/3x3_s2"
  type: "Pooling"
  bottom: "conv2/norm2"
  top: "pool2/3x3_s2"
  pooling_param {
    pool: MAX
    kernel_size: 3
    stride: 2
  }
}
layer {
  name: "inception_3a/1x1"
  type: "Convolution"
  bottom: "pool2/3x3_s2"
  top: "inception_3a/1x1"
  param {
    lr_mult: 1
    decay_mult: 1
  }
  param {
    lr_mult: 2
    decay_mult: 0
  }
  convolution_param {
    num_output: 64
    kernel_size: 1
    weight_filler {
      type: "xavier"
    }
    bias_filler {
      type: "constant"
      value: 0.2
    }
  }
}
layer {
  name: "inception_3a/relu_1x1"
  type: "ReLU"
  bottom: "inception_3a/1x1"
  top: "inception_3a/1x1"
}
layer {
  name: "inception_3a/3x3_reduce"
  type: "Convolution"
  bottom: "pool2/3x3_s2"
  top: "inception_3a/3x3_reduce"
  param {
    lr_mult: 1
    decay_mult: 1
  }
  param {
    lr_mult: 2
    decay_mult: 0
  }
  convolution_param {
    num_output: 96
    kernel_size: 1
    weight_filler {
      type: "xavier"
    }
    bias_filler {
      type: "constant"
      value: 0.2
    }
  }
}
layer {
  name: "inception_3a/relu_3x3_reduce"
  type: "ReLU"
  bottom: "inception_3a/3x3_reduce"
  top: "inception_3a/3x3_reduce"
}
layer {
  name: "inception_3a/3x3"
  type: "Convolution"
  bottom: "inception_3a/3x3_reduce"
  top: "inception_3a/3x3"
  param {
    lr_mult: 1
    decay_mult: 1
  }
  param {
    lr_mult: 2
    decay_mult: 0
  }
  convolution_param {
    num_output: 128
    pad: 1
    kernel_size: 3
    weight_filler {
      type: "xavier"
    }
    bias_filler {
      type: "constant"
      value: 0.2
    }
  }
}
layer {
  name: "inception_3a/relu_3x3"
  type: "ReLU"
  bottom: "inception_3a/3x3"
  top: "inception_3a/3x3"
}
layer {
  name: "inception_3a/5x5_reduce"
  type: "Convolution"
  bottom: "pool2/3x3_s2"
  top: "inception_3a/5x5_reduce"
  param {
    lr_mult: 1
    decay_mult: 1
  }
  param {
    lr_mult: 2
    decay_mult: 0
  }
  convolution_param {
    num_output: 16
    kernel_size: 1
    weight_filler {
      type: "xavier"
    }
    bias_filler {
      type: "constant"
      value: 0.2
    }
  }
}
layer {
  name: "inception_3a/relu_5x5_reduce"
  type: "ReLU"
  bottom: "inception_3a/5x5_reduce"
  top: "inception_3a/5x5_reduce"
}
layer {
  name: "inception_3a/5x5"
  type: "Convolution"
  bottom: "inception_3a/5x5_reduce"
  top: "inception_3a/5x5"
  param {
    lr_mult: 1
    decay_mult: 1
  }
  param {
    lr_mult: 2
    decay_mult: 0
  }
  convolution_param {
    num_output: 32
    pad: 2
    kernel_size: 5
    weight_filler {
      type: "xavier"
    }
    bias_filler {
      type: "constant"
      value: 0.2
    }
  }
}
layer {
  name: "inception_3a/relu_5x5"
  type: "ReLU"
  bottom: "inception_3a/5x5"
  top: "inception_3a/5x5"
}
layer {
  name: "inception_3a/pool"
  type: "Pooling"
  bottom: "pool2/3x3_s2"
  top: "inception_3a/pool"
  pooling_param {
    pool: MAX
    kernel_size: 3
    stride: 1
    pad: 1
  }
}
layer {
  name: "inception_3a/pool_proj"
  type: "Convolution"
  bottom: "inception_3a/pool"
  top: "inception_3a/pool_proj"
  param {
    lr_mult: 1
    decay_mult: 1
  }
  param {
    lr_mult: 2
    decay_mult: 0
  }
  convolution_param {
    num_output: 32
    kernel_size: 1
    weight_filler {
      type: "xavier"
    }
    bias_filler {
      type: "constant"
      value: 0.2
    }
  }
}
layer {
  name: "inception_3a/relu_pool_proj"
  type: "ReLU"
  bottom: "inception_3a/pool_proj"
  top: "inception_3a/pool_proj"
}
layer {
  name: "inception_3a/output"
  type: "Concat"
  bottom: "inception_3a/1x1"
  bottom: "inception_3a/3x3"
  bottom: "inception_3a/5x5"
  bottom: "inception_3a/pool_proj"
  top: "inception_3a/output"
}
layer {
  name: "inception_3b/1x1"
  type: "Convolution"
  bottom: "inception_3a/output"
  top: "inception_3b/1x1"
  param {
    lr_mult: 1
    decay_mult: 1
  }
  param {
    lr_mult: 2
    decay_mult: 0
  }
  convolution_param {
    num_output: 128
    kernel_size: 1
    weight_filler {
      type: "xavier"
    }
    bias_filler {
      type: "constant"
      value: 0.2
    }
  }
}
layer {
  name: "inception_3b/relu_1x1"
  type: "ReLU"
  bottom: "inception_3b/1x1"
  top: "inception_3b/1x1"
}
layer {
  name: "inception_3b/3x3_reduce"
  type: "Convolution"
  bottom: "inception_3a/output"
  top: "inception_3b/3x3_reduce"
  param {
    lr_mult: 1
    decay_mult: 1
  }
  param {
    lr_mult: 2
    decay_mult: 0
  }
  convolution_param {
    num_output: 128
    kernel_size: 1
    weight_filler {
      type: "xavier"
    }
    bias_filler {
      type: "constant"
      value: 0.2
    }
  }
}
layer {
  name: "inception_3b/relu_3x3_reduce"
  type: "ReLU"
  bottom: "inception_3b/3x3_reduce"
  top: "inception_3b/3x3_reduce"
}
layer {
  name: "inception_3b/3x3"
  type: "Convolution"
  bottom: "inception_3b/3x3_reduce"
  top: "inception_3b/3x3"
  param {
    lr_mult: 1
    decay_mult: 1
  }
  param {
    lr_mult: 2
    decay_mult: 0
  }
  convolution_param {
    num_output: 192
    pad: 1
    kernel_size: 3
    weight_filler {
      type: "xavier"
    }
    bias_filler {
      type: "constant"
      value: 0.2
    }
  }
}
layer {
  name: "inception_3b/relu_3x3"
  type: "ReLU"
  bottom: "inception_3b/3x3"
  top: "inception_3b/3x3"
}
layer {
  name: "inception_3b/5x5_reduce"
  type: "Convolution"
  bottom: "inception_3a/output"
  top: "inception_3b/5x5_reduce"
  param {
    lr_mult: 1
    decay_mult: 1
  }
  param {
    lr_mult: 2
    decay_mult: 0
  }
  convolution_param {
    num_output: 32
    kernel_size: 1
    weight_filler {
      type: "xavier"
    }
    bias_filler {
      type: "constant"
      value: 0.2
    }
  }
}
layer {
  name: "inception_3b/relu_5x5_reduce"
  type: "ReLU"
  bottom: "inception_3b/5x5_reduce"
  top: "inception_3b/5x5_reduce"
}
layer {
  name: "inception_3b/5x5"
  type: "Convolution"
  bottom: "inception_3b/5x5_reduce"
  top: "inception_3b/5x5"
  param {
    lr_mult: 1
    decay_mult: 1
  }
  param {
    lr_mult: 2
    decay_mult: 0
  }
  convolution_param {
    num_output: 96
    pad: 2
    kernel_size: 5
    weight_filler {
      type: "xavier"
    }
    bias_filler {
      type: "constant"
      value: 0.2
    }
  }
}
layer {
  name: "inception_3b/relu_5x5"
  type: "ReLU"
  bottom: "inception_3b/5x5"
  top: "inception_3b/5x5"
}
layer {
  name: "inception_3b/pool"
  type: "Pooling"
  bottom: "inception_3a/output"
  top: "inception_3b/pool"
  pooling_param {
    pool: MAX
    kernel_size: 3
    stride: 1
    pad: 1
  }
}
layer {
  name: "inception_3b/pool_proj"
  type: "Convolution"
  bottom: "inception_3b/pool"
  top: "inception_3b/pool_proj"
  param {
    lr_mult: 1
    decay_mult: 1
  }
  param {
    lr_mult: 2
    decay_mult: 0
  }
  convolution_param {
    num_output: 64
    kernel_size: 1
    weight_filler {
      type: "xavier"
    }
    bias_filler {
      type: "constant"
      value: 0.2
    }
  }
}
layer {
  name: "inception_3b/relu_pool_proj"
  type: "ReLU"
  bottom: "inception_3b/pool_proj"
  top: "inception_3b/pool_proj"
}
layer {
  name: "inception_3b/output"
  type: "Concat"
  bottom: "inception_3b/1x1"
  bottom: "inception_3b/3x3"
  bottom: "inception_3b/5x5"
  bottom: "inception_3b/pool_proj"
  top: "inception_3b/output"
}
layer {
  name: "pool3/3x3_s2"
  type: "Pooling"
  bottom: "inception_3b/output"
  top: "pool3/3x3_s2"
  pooling_param {
    pool: MAX
    kernel_size: 3
    stride: 2
  }
}
layer {
  name: "inception_4a/1x1"
  type: "Convolution"
  bottom: "pool3/3x3_s2"
  top: "inception_4a/1x1"
  param {
    lr_mult: 1
    decay_mult: 1
  }
  param {
    lr_mult: 2
    decay_mult: 0
  }
  convolution_param {
    num_output: 192
    kernel_size: 1
    weight_filler {
      type: "xavier"
    }
    bias_filler {
      type: "constant"
      value: 0.2
    }
  }
}
layer {
  name: "inception_4a/relu_1x1"
  type: "ReLU"
  bottom: "inception_4a/1x1"
  top: "inception_4a/1x1"
}
layer {
  name: "inception_4a/3x3_reduce"
  type: "Convolution"
  bottom: "pool3/3x3_s2"
  top: "inception_4a/3x3_reduce"
  param {
    lr_mult: 1
    decay_mult: 1
  }
  param {
    lr_mult: 2
    decay_mult: 0
  }
  convolution_param {
    num_output: 96
    kernel_size: 1
    weight_filler {
      type: "xavier"
    }
    bias_filler {
      type: "constant"
      value: 0.2
    }
  }
}
layer {
  name: "inception_4a/relu_3x3_reduce"
  type: "ReLU"
  bottom: "inception_4a/3x3_reduce"
  top: "inception_4a/3x3_reduce"
}
layer {
  name: "inception_4a/3x3"
  type: "Convolution"
  bottom: "inception_4a/3x3_reduce"
  top: "inception_4a/3x3"
  param {
    lr_mult: 1
    decay_mult: 1
  }
  param {
    lr_mult: 2
    decay_mult: 0
  }
  convolution_param {
    num_output: 208
    pad: 1
    kernel_size: 3
    weight_filler {
      type: "xavier"
    }
    bias_filler {
      type: "constant"
      value: 0.2
    }
  }
}
layer {
  name: "inception_4a/relu_3x3"
  type: "ReLU"
  bottom: "inception_4a/3x3"
  top: "inception_4a/3x3"
}
layer {
  name: "inception_4a/5x5_reduce"
  type: "Convolution"
  bottom: "pool3/3x3_s2"
  top: "inception_4a/5x5_reduce"
  param {
    lr_mult: 1
    decay_mult: 1
  }
  param {
    lr_mult: 2
    decay_mult: 0
  }
  convolution_param {
    num_output: 16
    kernel_size: 1
    weight_filler {
      type: "xavier"
    }
    bias_filler {
      type: "constant"
      value: 0.2
    }
  }
}
layer {
  name: "inception_4a/relu_5x5_reduce"
  type: "ReLU"
  bottom: "inception_4a/5x5_reduce"
  top: "inception_4a/5x5_reduce"
}
layer {
  name: "inception_4a/5x5"
  type: "Convolution"
  bottom: "inception_4a/5x5_reduce"
  top: "inception_4a/5x5"
  param {
    lr_mult: 1
    decay_mult: 1
  }
  param {
    lr_mult: 2
    decay_mult: 0
  }
  convolution_param {
    num_output: 48
    pad: 2
    kernel_size: 5
    weight_filler {
      type: "xavier"
    }
    bias_filler {
      type: "constant"
      value: 0.2
    }
  }
}
layer {
  name: "inception_4a/relu_5x5"
  type: "ReLU"
  bottom: "inception_4a/5x5"
  top: "inception_4a/5x5"
}
layer {
  name: "inception_4a/pool"
  type: "Pooling"
  bottom: "pool3/3x3_s2"
  top: "inception_4a/pool"
  pooling_param {
    pool: MAX
    kernel_size: 3
    stride: 1
    pad: 1
  }
}
layer {
  name: "inception_4a/pool_proj"
  type: "Convolution"
  bottom: "inception_4a/pool"
  top: "inception_4a/pool_proj"
  param {
    lr_mult: 1
    decay_mult: 1
  }
  param {
    lr_mult: 2
    decay_mult: 0
  }
  convolution_param {
    num_output: 64
    kernel_size: 1
    weight_filler {
      type: "xavier"
    }
    bias_filler {
      type: "constant"
      value: 0.2
    }
  }
}
layer {
  name: "inception_4a/relu_pool_proj"
  type: "ReLU"
  bottom: "inception_4a/pool_proj"
  top: "inception_4a/pool_proj"
}
layer {
  name: "inception_4a/output"
  type: "Concat"
  bottom: "inception_4a/1x1"
  bottom: "inception_4a/3x3"
  bottom: "inception_4a/5x5"
  bottom: "inception_4a/pool_proj"
  top: "inception_4a/output"
}
layer {
  name: "loss1/ave_pool"
  type: "Pooling"
  bottom: "inception_4a/output"
  top: "loss1/ave_pool"
  pooling_param {
    pool: AVE
    kernel_size: 5
    stride: 3
  }
}
layer {
  name: "loss1/conv"
  type: "Convolution"
  bottom: "loss1/ave_pool"
  top: "loss1/conv"
  param {
    lr_mult: 1
    decay_mult: 1
  }
  param {
    lr_mult: 2
    decay_mult: 0
  }
  convolution_param {
    num_output: 128
    kernel_size: 1
    weight_filler {
      type: "xavier"
    }
    bias_filler {
      type: "constant"
      value: 0.2
    }
  }
}
layer {
  name: "loss1/relu_conv"
  type: "ReLU"
  bottom: "loss1/conv"
  top: "loss1/conv"
}
layer {
  name: "loss1/fc"
  type: "InnerProduct"
  bottom: "loss1/conv"
  top: "loss1/fc"
  param {
    lr_mult: 1
    decay_mult: 1
  }
  param {
    lr_mult: 2
    decay_mult: 0
  }
  inner_product_param {
    num_output: 1024
    weight_filler {
      type: "xavier"
    }
    bias_filler {
      type: "constant"
      value: 0.2
    }
  }
}
layer {
  name: "loss1/relu_fc"
  type: "ReLU"
  bottom: "loss1/fc"
  top: "loss1/fc"
}
layer {
  name: "loss1/drop_fc"
…
I1108 14:33:52.179179 11054 net.cpp:165] Memory required for data: 1094786612
I1108 14:33:52.179184 11054 layer_factory.hpp:77] Creating layer inception_4c/pool
I1108 14:33:52.179198 11054 net.cpp:100] Creating Layer inception_4c/pool
I1108 14:33:52.179205 11054 net.cpp:434] inception_4c/pool <- inception_4b/output_inception_4b/output_0_split_3
I1108 14:33:52.179214 11054 net.cpp:408] inception_4c/pool -> inception_4c/pool
I1108 14:33:52.179301 11054 net.cpp:150] Setting up inception_4c/pool
I1108 14:33:52.179312 11054 net.cpp:157] Top shape: 25 512 14 14 (2508800)
I1108 14:33:52.179316 11054 net.cpp:165] Memory required for data: 1104821812
I1108 14:33:52.179322 11054 layer_factory.hpp:77] Creating layer inception_4c/pool_proj
I1108 14:33:52.179333 11054 net.cpp:100] Creating Layer inception_4c/pool_proj
I1108 14:33:52.179340 11054 net.cpp:434] inception_4c/pool_proj <- inception_4c/pool
I1108 14:33:52.179350 11054 net.cpp:408] inception_4c/pool_proj -> inception_4c/pool_proj
I1108 14:33:52.181255 11054 net.cpp:150] Setting up inception_4c/pool_proj
I1108 14:33:52.181273 11054 net.cpp:157] Top shape: 25 64 14 14 (313600)
I1108 14:33:52.181278 11054 net.cpp:165] Memory required for data: 1106076212
I1108 14:33:52.181287 11054 layer_factory.hpp:77] Creating layer inception_4c/relu_pool_proj
I1108 14:33:52.181295 11054 net.cpp:100] Creating Layer inception_4c/relu_pool_proj
I1108 14:33:52.181301 11054 net.cpp:434] inception_4c/relu_pool_proj <- inception_4c/pool_proj
I1108 14:33:52.181308 11054 net.cpp:395] inception_4c/relu_pool_proj -> inception_4c/pool_proj (in-place)
I1108 14:33:52.181550 11054 net.cpp:150] Setting up inception_4c/relu_pool_proj
I1108 14:33:52.181562 11054 net.cpp:157] Top shape: 25 64 14 14 (313600)
I1108 14:33:52.181567 11054 net.cpp:165] Memory required for data: 1107330612
I1108 14:33:52.181572 11054 layer_factory.hpp:77] Creating layer inception_4c/output
I1108 14:33:52.181581 11054 net.cpp:100] Creating Layer inception_4c/output
I1108 14:33:52.181587 11054 net.cpp:434] inception_4c/output <- inception_4c/1x1
I1108 14:33:52.181593 11054 net.cpp:434] inception_4c/output <- inception_4c/3x3
I1108 14:33:52.181599 11054 net.cpp:434] inception_4c/output <- inception_4c/5x5
I1108 14:33:52.181610 11054 net.cpp:434] inception_4c/output <- inception_4c/pool_proj
I1108 14:33:52.181623 11054 net.cpp:408] inception_4c/output -> inception_4c/output
I1108 14:33:52.181679 11054 net.cpp:150] Setting up inception_4c/output
I1108 14:33:52.181689 11054 net.cpp:157] Top shape: 25 512 14 14 (2508800)
I1108 14:33:52.181694 11054 net.cpp:165] Memory required for data: 1117365812
I1108 14:33:52.181697 11054 layer_factory.hpp:77] Creating layer inception_4c/output_inception_4c/output_0_split
I1108 14:33:52.181704 11054 net.cpp:100] Creating Layer inception_4c/output_inception_4c/output_0_split
I1108 14:33:52.181710 11054 net.cpp:434] inception_4c/output_inception_4c/output_0_split <- inception_4c/output
I1108 14:33:52.181718 11054 net.cpp:408] inception_4c/output_inception_4c/output_0_split -> inception_4c/output_inception_4c/output_0_split_0
I1108 14:33:52.181727 11054 net.cpp:408] inception_4c/output_inception_4c/output_0_split -> inception_4c/output_inception_4c/output_0_split_1
I1108 14:33:52.181735 11054 net.cpp:408] inception_4c/output_inception_4c/output_0_split -> inception_4c/output_inception_4c/output_0_split_2
I1108 14:33:52.181743 11054 net.cpp:408] inception_4c/output_inception_4c/output_0_split -> inception_4c/output_inception_4c/output_0_split_3
I1108 14:33:52.181869 11054 net.cpp:150] Setting up inception_4c/output_inception_4c/output_0_split
I1108 14:33:52.181881 11054 net.cpp:157] Top shape: 25 512 14 14 (2508800)
I1108 14:33:52.181887 11054 net.cpp:157] Top shape: 25 512 14 14 (2508800)
I1108 14:33:52.181892 11054 net.cpp:157] Top shape: 25 512 14 14 (2508800)
I1108 14:33:52.181897 11054 net.cpp:157] Top shape: 25 512 14 14 (2508800)
I1108 14:33:52.181901 11054 net.cpp:165] Memory required for data: 1157506612
I1108 14:33:52.181906 11054 layer_factory.hpp:77] Creating layer inception_4d/1x1
I1108 14:33:52.181918 11054 net.cpp:100] Creating Layer inception_4d/1x1
I1108 14:33:52.181924 11054 net.cpp:434] inception_4d/1x1 <- inception_4c/output_inception_4c/output_0_split_0
I1108 14:33:52.181932 11054 net.cpp:408] inception_4d/1x1 -> inception_4d/1x1
I1108 14:33:52.184041 11054 net.cpp:150] Setting up inception_4d/1x1
I1108 14:33:52.184058 11054 net.cpp:157] Top shape: 25 112 14 14 (548800)
I1108 14:33:52.184063 11054 net.cpp:165] Memory required for data: 1159701812
I1108 14:33:52.184072 11054 layer_factory.hpp:77] Creating layer inception_4d/relu_1x1
I1108 14:33:52.184080 11054 net.cpp:100] Creating Layer inception_4d/relu_1x1
I1108 14:33:52.184087 11054 net.cpp:434] inception_4d/relu_1x1 <- inception_4d/1x1
I1108 14:33:52.184093 11054 net.cpp:395] inception_4d/relu_1x1 -> inception_4d/1x1 (in-place)
I1108 14:33:52.184567 11054 net.cpp:150] Setting up inception_4d/relu_1x1
I1108 14:33:52.184584 11054 net.cpp:157] Top shape: 25 112 14 14 (548800)
I1108 14:33:52.184589 11054 net.cpp:165] Memory required for data: 1161897012
I1108 14:33:52.184595 11054 layer_factory.hpp:77] Creating layer inception_4d/3x3_reduce
I1108 14:33:52.184620 11054 net.cpp:100] Creating Layer inception_4d/3x3_reduce
I1108 14:33:52.184628 11054 net.cpp:434] inception_4d/3x3_reduce <- inception_4c/output_inception_4c/output_0_split_1
I1108 14:33:52.184639 11054 net.cpp:408] inception_4d/3x3_reduce -> inception_4d/3x3_reduce
I1108 14:33:52.186679 11054 net.cpp:150] Setting up inception_4d/3x3_reduce
I1108 14:33:52.186697 11054 net.cpp:157] Top shape: 25 144 14 14 (705600)
I1108 14:33:52.186702 11054 net.cpp:165] Memory required for data: 1164719412
I1108 14:33:52.186712 11054 layer_factory.hpp:77] Creating layer inception_4d/relu_3x3_reduce
I1108 14:33:52.186719 11054 net.cpp:100] Creating Layer inception_4d/relu_3x3_reduce
I1108 14:33:52.186725 11054 net.cpp:434] inception_4d/relu_3x3_reduce <- inception_4d/3x3_reduce
I1108 14:33:52.186735 11054 net.cpp:395] inception_4d/relu_3x3_reduce -> inception_4d/3x3_reduce (in-place)
I1108 14:33:52.187211 11054 net.cpp:150] Setting up inception_4d/relu_3x3_reduce
I1108 14:33:52.187227 11054 net.cpp:157] Top shape: 25 144 14 14 (705600)
I1108 14:33:52.187232 11054 net.cpp:165] Memory required for data: 1167541812
I1108 14:33:52.187242 11054 layer_factory.hpp:77] Creating layer inception_4d/3x3
I1108 14:33:52.187261 11054 net.cpp:100] Creating Layer inception_4d/3x3
I1108 14:33:52.187268 11054 net.cpp:434] inception_4d/3x3 <- inception_4d/3x3_reduce
I1108 14:33:52.187279 11054 net.cpp:408] inception_4d/3x3 -> inception_4d/3x3
I1108 14:33:52.193325 11054 net.cpp:150] Setting up inception_4d/3x3
I1108 14:33:52.193343 11054 net.cpp:157] Top shape: 25 288 14 14 (1411200)
I1108 14:33:52.193349 11054 net.cpp:165] Memory required for data: 1173186612
I1108 14:33:52.193358 11054 layer_factory.hpp:77] Creating layer inception_4d/relu_3x3
I1108 14:33:52.193368 11054 net.cpp:100] Creating Layer inception_4d/relu_3x3
I1108 14:33:52.193375 11054 net.cpp:434] inception_4d/relu_3x3 <- inception_4d/3x3
I1108 14:33:52.193382 11054 net.cpp:395] inception_4d/relu_3x3 -> inception_4d/3x3 (in-place)
I1108 14:33:52.193627 11054 net.cpp:150] Setting up inception_4d/relu_3x3
I1108 14:33:52.193641 11054 net.cpp:157] Top shape: 25 288 14 14 (1411200)
I1108 14:33:52.193646 11054 net.cpp:165] Memory required for data: 1178831412
I1108 14:33:52.193651 11054 layer_factory.hpp:77] Creating layer inception_4d/5x5_reduce
I1108 14:33:52.193663 11054 net.cpp:100] Creating Layer inception_4d/5x5_reduce
I1108 14:33:52.193670 11054 net.cpp:434] inception_4d/5x5_reduce <- inception_4c/output_inception_4c/output_0_split_2
I1108 14:33:52.193678 11054 net.cpp:408] inception_4d/5x5_reduce -> inception_4d/5x5_reduce
I1108 14:33:52.195497 11054 net.cpp:150] Setting up inception_4d/5x5_reduce
I1108 14:33:52.195515 11054 net.cpp:157] Top shape: 25 32 14 14 (156800)
I1108 14:33:52.195520 11054 net.cpp:165] Memory required for data: 1179458612
I1108 14:33:52.195529 11054 layer_factory.hpp:77] Creating layer inception_4d/relu_5x5_reduce
I1108 14:33:52.195539 11054 net.cpp:100] Creating Layer inception_4d/relu_5x5_reduce
I1108 14:33:52.195546 11054 net.cpp:434] inception_4d/relu_5x5_reduce <- inception_4d/5x5_reduce
I1108 14:33:52.195554 11054 net.cpp:395] inception_4d/relu_5x5_reduce -> inception_4d/5x5_reduce (in-place)
I1108 14:33:52.196035 11054 net.cpp:150] Setting up inception_4d/relu_5x5_reduce
I1108 14:33:52.196051 11054 net.cpp:157] Top shape: 25 32 14 14 (156800)
I1108 14:33:52.196056 11054 net.cpp:165] Memory required for data: 1180085812
I1108 14:33:52.196063 11054 layer_factory.hpp:77] Creating layer inception_4d/5x5
I1108 14:33:52.196075 11054 net.cpp:100] Creating Layer inception_4d/5x5
I1108 14:33:52.196081 11054 net.cpp:434] inception_4d/5x5 <- inception_4d/5x5_reduce
I1108 14:33:52.196091 11054 net.cpp:408] inception_4d/5x5 -> inception_4d/5x5
I1108 14:33:52.197944 11054 net.cpp:150] Setting up inception_4d/5x5
I1108 14:33:52.197962 11054 net.cpp:157] Top shape: 25 64 14 14 (313600)
I1108 14:33:52.197968 11054 net.cpp:165] Memory required for data: 1181340212
I1108 14:33:52.197976 11054 layer_factory.hpp:77] Creating layer inception_4d/relu_5x5
I1108 14:33:52.197985 11054 net.cpp:100] Creating Layer inception_4d/relu_5x5
I1108 14:33:52.197991 11054 net.cpp:434] inception_4d/relu_5x5 <- inception_4d/5x5
I1108 14:33:52.198000 11054 net.cpp:395] inception_4d/relu_5x5 -> inception_4d/5x5 (in-place)
I1108 14:33:52.198469 11054 net.cpp:150] Setting up inception_4d/relu_5x5
I1108 14:33:52.198485 11054 net.cpp:157] Top shape: 25 64 14 14 (313600)
I1108 14:33:52.198490 11054 net.cpp:165] Memory required for data: 1182594612
I1108 14:33:52.198496 11054 layer_factory.hpp:77] Creating layer inception_4d/pool
I1108 14:33:52.198504 11054 net.cpp:100] Creating Layer inception_4d/pool
I1108 14:33:52.198513 11054 net.cpp:434] inception_4d/pool <- inception_4c/output_inception_4c/output_0_split_3
I1108 14:33:52.198520 11054 net.cpp:408] inception_4d/pool -> inception_4d/pool
I1108 14:33:52.198614 11054 net.cpp:150] Setting up inception_4d/pool
I1108 14:33:52.198626 11054 net.cpp:157] Top shape: 25 512 14 14 (2508800)
I1108 14:33:52.198631 11054 net.cpp:165] Memory required for data: 1192629812
I1108 14:33:52.198635 11054 layer_factory.hpp:77] Creating layer inception_4d/pool_proj
I1108 14:33:52.198652 11054 net.cpp:100] Creating Layer inception_4d/pool_proj
I1108 14:33:52.198667 11054 net.cpp:434] inception_4d/pool_proj <- inception_4d/pool
I1108 14:33:52.198675 11054 net.cpp:408] inception_4d/pool_proj -> inception_4d/pool_proj
I1108 14:33:52.200628 11054 net.cpp:150] Setting up inception_4d/pool_proj
I1108 14:33:52.200645 11054 net.cpp:157] Top shape: 25 64 14 14 (313600)
I1108 14:33:52.200651 11054 net.cpp:165] Memory required for data: 1193884212
I1108 14:33:52.200660 11054 layer_factory.hpp:77] Creating layer inception_4d/relu_pool_proj
I1108 14:33:52.200669 11054 net.cpp:100] Creating Layer inception_4d/relu_pool_proj
I1108 14:33:52.200675 11054 net.cpp:434] inception_4d/relu_pool_proj <- inception_4d/pool_proj
I1108 14:33:52.200685 11054 net.cpp:395] inception_4d/relu_pool_proj -> inception_4d/pool_proj (in-place)
I1108 14:33:52.200922 11054 net.cpp:150] Setting up inception_4d/relu_pool_proj
I1108 14:33:52.200934 11054 net.cpp:157] Top shape: 25 64 14 14 (313600)
I1108 14:33:52.200938 11054 net.cpp:165] Memory required for data: 1195138612
I1108 14:33:52.200943 11054 layer_factory.hpp:77] Creating layer inception_4d/output
I1108 14:33:52.200953 11054 net.cpp:100] Creating Layer inception_4d/output
I1108 14:33:52.200959 11054 net.cpp:434] inception_4d/output <- inception_4d/1x1
I1108 14:33:52.200965 11054 net.cpp:434] inception_4d/output <- inception_4d/3x3
I1108 14:33:52.200971 11054 net.cpp:434] inception_4d/output <- inception_4d/5x5
I1108 14:33:52.200978 11054 net.cpp:434] inception_4d/output <- inception_4d/pool_proj
I1108 14:33:52.200984 11054 net.cpp:408] inception_4d/output -> inception_4d/output
I1108 14:33:52.201035 11054 net.cpp:150] Setting up inception_4d/output
I1108 14:33:52.201047 11054 net.cpp:157] Top shape: 25 528 14 14 (2587200)
I1108 14:33:52.201051 11054 net.cpp:165] Memory required for data: 1205487412
I1108 14:33:52.201056 11054 layer_factory.hpp:77] Creating layer inception_4d/output_inception_4d/output_0_split
I1108 14:33:52.201064 11054 net.cpp:100] Creating Layer inception_4d/output_inception_4d/output_0_split
I1108 14:33:52.201069 11054 net.cpp:434] inception_4d/output_inception_4d/output_0_split <- inception_4d/output
I1108 14:33:52.201078 11054 net.cpp:408] inception_4d/output_inception_4d/output_0_split -> inception_4d/output_inception_4d/output_0_split_0
I1108 14:33:52.201087 11054 net.cpp:408] inception_4d/output_inception_4d/output_0_split -> inception_4d/output_inception_4d/output_0_split_1
I1108 14:33:52.201095 11054 net.cpp:408] inception_4d/output_inception_4d/output_0_split -> inception_4d/output_inception_4d/output_0_split_2
I1108 14:33:52.201103 11054 net.cpp:408] inception_4d/output_inception_4d/output_0_split -> inception_4d/output_inception_4d/output_0_split_3
I1108 14:33:52.201110 11054 net.cpp:408] inception_4d/output_inception_4d/output_0_split -> inception_4d/output_inception_4d/output_0_split_4
I1108 14:33:52.201262 11054 net.cpp:150] Setting up inception_4d/output_inception_4d/output_0_split
I1108 14:33:52.201274 11054 net.cpp:157] Top shape: 25 528 14 14 (2587200)
I1108 14:33:52.201280 11054 net.cpp:157] Top shape: 25 528 14 14 (2587200)
I1108 14:33:52.201285 11054 net.cpp:157] Top shape: 25 528 14 14 (2587200)
I1108 14:33:52.201290 11054 net.cpp:157] Top shape: 25 528 14 14 (2587200)
I1108 14:33:52.201295 11054 net.cpp:157] Top shape: 25 528 14 14 (2587200)
I1108 14:33:52.201300 11054 net.cpp:165] Memory required for data: 1257231412
I1108 14:33:52.201304 11054 layer_factory.hpp:77] Creating layer loss2/ave_pool
I1108 14:33:52.201313 11054 net.cpp:100] Creating Layer loss2/ave_pool
I1108 14:33:52.201318 11054 net.cpp:434] loss2/ave_pool <- inception_4d/output_inception_4d/output_0_split_0
I1108 14:33:52.201324 11054 net.cpp:408] loss2/ave_pool -> loss2/ave_pool
I1108 14:33:52.202250 11054 net.cpp:150] Setting up loss2/ave_pool
I1108 14:33:52.202270 11054 net.cpp:157] Top shape: 25 528 4 4 (211200)
I1108 14:33:52.202275 11054 net.cpp:165] Memory required for data: 1258076212
I1108 14:33:52.202280 11054 layer_factory.hpp:77] Creating layer loss2/conv
I1108 14:33:52.202297 11054 net.cpp:100] Creating Layer loss2/conv
I1108 14:33:52.202311 11054 net.cpp:434] loss2/conv <- loss2/ave_pool
I1108 14:33:52.202320 11054 net.cpp:408] loss2/conv -> loss2/conv
I1108 14:33:52.204576 11054 net.cpp:150] Setting up loss2/conv
I1108 14:33:52.204594 11054 net.cpp:157] Top shape: 25 128 4 4 (51200)
I1108 14:33:52.204601 11054 net.cpp:165] Memory required for data: 1258281012
I1108 14:33:52.204609 11054 layer_factory.hpp:77] Creating layer loss2/relu_conv
I1108 14:33:52.204619 11054 net.cpp:100] Creating Layer loss2/relu_conv
I1108 14:33:52.204625 11054 net.cpp:434] loss2/relu_conv <- loss2/conv
I1108 14:33:52.204632 11054 net.cpp:395] loss2/relu_conv -> loss2/conv (in-place)
I1108 14:33:52.204880 11054 net.cpp:150] Setting up loss2/relu_conv
I1108 14:33:52.204895 11054 net.cpp:157] Top shape: 25 128 4 4 (51200)
I1108 14:33:52.204900 11054 net.cpp:165] Memory required for data: 1258485812
I1108 14:33:52.204905 11054 layer_factory.hpp:77] Creating layer loss2/fc
I1108 14:33:52.204913 11054 net.cpp:100] Creating Layer loss2/fc
I1108 14:33:52.204919 11054 net.cpp:434] loss2/fc <- loss2/conv
I1108 14:33:52.204928 11054 net.cpp:408] loss2/fc -> loss2/fc
I1108 14:33:52.227699 11054 net.cpp:150] Setting up loss2/fc
I1108 14:33:52.227723 11054 net.cpp:157] Top shape: 25 1024 (25600)
I1108 14:33:52.227728 11054 net.cpp:165] Memory required for data: 1258588212
I1108 14:33:52.227738 11054 layer_factory.hpp:77] Creating layer loss2/relu_fc
I1108 14:33:52.227749 11054 net.cpp:100] Creating Layer loss2/relu_fc
I1108 14:33:52.227756 11054 net.cpp:434] loss2/relu_fc <- loss2/fc
I1108 14:33:52.227763 11054 net.cpp:395] loss2/relu_fc -> loss2/fc (in-place)
I1108 14:33:52.228268 11054 net.cpp:150] Setting up loss2/relu_fc
I1108 14:33:52.228286 11054 net.cpp:157] Top shape: 25 1024 (25600)
I1108 14:33:52.228291 11054 net.cpp:165] Memory required for data: 1258690612
I1108 14:33:52.228296 11054 layer_factory.hpp:77] Creating layer loss2/drop_fc
I1108 14:33:52.228305 11054 net.cpp:100] Creating Layer loss2/drop_fc
I1108 14:33:52.228312 11054 net.cpp:434] loss2/drop_fc <- loss2/fc
I1108 14:33:52.228317 11054 net.cpp:395] loss2/drop_fc -> loss2/fc (in-place)
I1108 14:33:52.228374 11054 net.cpp:150] Setting up loss2/drop_fc
I1108 14:33:52.228384 11054 net.cpp:157] Top shape: 25 1024 (25600)
I1108 14:33:52.228389 11054 net.cpp:165] Memory required for data: 1258793012
I1108 14:33:52.228394 11054 layer_factory.hpp:77] Creating layer loss2/classifier
I1108 14:33:52.228404 11054 net.cpp:100] Creating Layer loss2/classifier
I1108 14:33:52.228409 11054 net.cpp:434] loss2/classifier <- loss2/fc
I1108 14:33:52.228416 11054 net.cpp:408] loss2/classifier -> loss2/classifier
I1108 14:33:52.230561 11054 net.cpp:150] Setting up loss2/classifier
I1108 14:33:52.230578 11054 net.cpp:157] Top shape: 25 100 (2500)
I1108 14:33:52.230583 11054 net.cpp:165] Memory required for data: 1258803012
I1108 14:33:52.230592 11054 layer_factory.hpp:77] Creating layer loss2/classifier_loss2/classifier_0_split
I1108 14:33:52.230600 11054 net.cpp:100] Creating Layer loss2/classifier_loss2/classifier_0_split
I1108 14:33:52.230607 11054 net.cpp:434] loss2/classifier_loss2/classifier_0_split <- loss2/classifier
I1108 14:33:52.230614 11054 net.cpp:408] loss2/classifier_loss2/classifier_0_split -> loss2/classifier_loss2/classifier_0_split_0
I1108 14:33:52.230623 11054 net.cpp:408] loss2/classifier_loss2/classifier_0_split -> loss2/classifier_loss2/classifier_0_split_1
I1108 14:33:52.230634 11054 net.cpp:408] loss2/classifier_loss2/classifier_0_split -> loss2/classifier_loss2/classifier_0_split_2
I1108 14:33:52.230733 11054 net.cpp:150] Setting up loss2/classifier_loss2/classifier_0_split
I1108 14:33:52.230743 11054 net.cpp:157] Top shape: 25 100 (2500)
I1108 14:33:52.230748 11054 net.cpp:157] Top shape: 25 100 (2500)
I1108 14:33:52.230753 11054 net.cpp:157] Top shape: 25 100 (2500)
I1108 14:33:52.230757 11054 net.cpp:165] Memory required for data: 1258833012
I1108 14:33:52.230762 11054 layer_factory.hpp:77] Creating layer loss2/loss
I1108 14:33:52.230774 11054 net.cpp:100] Creating Layer loss2/loss
I1108 14:33:52.230790 11054 net.cpp:434] loss2/loss <- loss2/classifier_loss2/classifier_0_split_0
I1108 14:33:52.230798 11054 net.cpp:434] loss2/loss <- label_data_1_split_3
…
I1108 14:33:52.231405 11054 net.cpp:150] Setting up loss2/top-5
I1108 14:33:52.231411 11054 net.cpp:157] Top shape: (1)
I1108 14:33:52.231415 11054 net.cpp:165] Memory required for data: 1258833024
I1108 14:33:52.231420 11054 layer_factory.hpp:77] Creating layer inception_4e/1x1
I1108 14:33:52.231432 11054 net.cpp:100] Creating Layer inception_4e/1x1
I1108 14:33:52.231438 11054 net.cpp:434] inception_4e/1x1 <- inception_4d/output_inception_4d/output_0_split_1
I1108 14:33:52.231446 11054 net.cpp:408] inception_4e/1x1 -> inception_4e/1x1
I1108 14:33:52.234200 11054 net.cpp:150] Setting up inception_4e/1x1
I1108 14:33:52.234218 11054 net.cpp:157] Top shape: 25 256 14 14 (1254400)
I1108 14:33:52.234225 11054 net.cpp:165] Memory required for data: 1263850624
I1108 14:33:52.234233 11054 layer_factory.hpp:77] Creating layer inception_4e/relu_1x1
I1108 14:33:52.234243 11054 net.cpp:100] Creating Layer inception_4e/relu_1x1
I1108 14:33:52.234249 11054 net.cpp:434] inception_4e/relu_1x1 <- inception_4e/1x1
I1108 14:33:52.234257 11054 net.cpp:395] inception_4e/relu_1x1 -> inception_4e/1x1 (in-place)
I1108 14:33:52.234735 11054 net.cpp:150] Setting up inception_4e/relu_1x1
I1108 14:33:52.234753 11054 net.cpp:157] Top shape: 25 256 14 14 (1254400)
I1108 14:33:52.234760 11054 net.cpp:165] Memory required for data: 1268868224
I1108 14:33:52.234764 11054 layer_factory.hpp:77] Creating layer inception_4e/3x3_reduce
I1108 14:33:52.234797 11054 net.cpp:100] Creating Layer inception_4e/3x3_reduce
I1108 14:33:52.234803 11054 net.cpp:434] inception_4e/3x3_reduce <- inception_4d/output_inception_4d/output_0_split_2
I1108 14:33:52.234813 11054 net.cpp:408] inception_4e/3x3_reduce -> inception_4e/3x3_reduce
I1108 14:33:52.238104 11054 net.cpp:150] Setting up inception_4e/3x3_reduce
I1108 14:33:52.238126 11054 net.cpp:157] Top shape: 25 160 14 14 (784000)
I1108 14:33:52.238132 11054 net.cpp:165] Memory required for data: 1272004224
I1108 14:33:52.238142 11054 layer_factory.hpp:77] Creating layer inception_4e/relu_3x3_reduce
I1108 14:33:52.238149 11054 net.cpp:100] Creating Layer inception_4e/relu_3x3_reduce
I1108 14:33:52.238157 11054 net.cpp:434] inception_4e/relu_3x3_reduce <- inception_4e/3x3_reduce
I1108 14:33:52.238163 11054 net.cpp:395] inception_4e/relu_3x3_reduce -> inception_4e/3x3_reduce (in-place)
I1108 14:33:52.238651 11054 net.cpp:150] Setting up inception_4e/relu_3x3_reduce
I1108 14:33:52.238667 11054 net.cpp:157] Top shape: 25 160 14 14 (784000)
I1108 14:33:52.238677 11054 net.cpp:165] Memory required for data: 1275140224
I1108 14:33:52.238689 11054 layer_factory.hpp:77] Creating layer inception_4e/3x3
I1108 14:33:52.238703 11054 net.cpp:100] Creating Layer inception_4e/3x3
I1108 14:33:52.238708 11054 net.cpp:434] inception_4e/3x3 <- inception_4e/3x3_reduce
I1108 14:33:52.238719 11054 net.cpp:408] inception_4e/3x3 -> inception_4e/3x3
I1108 14:33:52.246733 11054 net.cpp:150] Setting up inception_4e/3x3
I1108 14:33:52.246752 11054 net.cpp:157] Top shape: 25 320 14 14 (1568000)
I1108 14:33:52.246758 11054 net.cpp:165] Memory required for data: 1281412224
I1108 14:33:52.246767 11054 layer_factory.hpp:77] Creating layer inception_4e/relu_3x3
I1108 14:33:52.246776 11054 net.cpp:100] Creating Layer inception_4e/relu_3x3
I1108 14:33:52.246783 11054 net.cpp:434] inception_4e/relu_3x3 <- inception_4e/3x3
I1108 14:33:52.246789 11054 net.cpp:395] inception_4e/relu_3x3 -> inception_4e/3x3 (in-place)
I1108 14:33:52.247048 11054 net.cpp:150] Setting up inception_4e/relu_3x3
I1108 14:33:52.247063 11054 net.cpp:157] Top shape: 25 320 14 14 (1568000)
I1108 14:33:52.247068 11054 net.cpp:165] Memory required for data: 1287684224
I1108 14:33:52.247073 11054 layer_factory.hpp:77] Creating layer inception_4e/5x5_reduce
I1108 14:33:52.247083 11054 net.cpp:100] Creating Layer inception_4e/5x5_reduce
I1108 14:33:52.247089 11054 net.cpp:434] inception_4e/5x5_reduce <- inception_4d/output_inception_4d/output_0_split_3
I1108 14:33:52.247100 11054 net.cpp:408] inception_4e/5x5_reduce -> inception_4e/5x5_reduce
I1108 14:33:52.248728 11054 net.cpp:150] Setting up inception_4e/5x5_reduce
I1108 14:33:52.248746 11054 net.cpp:157] Top shape: 25 32 14 14 (156800)
I1108 14:33:52.248752 11054 net.cpp:165] Memory required for data: 1288311424
I1108 14:33:52.248761 11054 layer_factory.hpp:77] Creating layer inception_4e/relu_5x5_reduce
I1108 14:33:52.248769 11054 net.cpp:100] Creating Layer inception_4e/relu_5x5_reduce
I1108 14:33:52.248775 11054 net.cpp:434] inception_4e/relu_5x5_reduce <- inception_4e/5x5_reduce
I1108 14:33:52.248785 11054 net.cpp:395] inception_4e/relu_5x5_reduce -> inception_4e/5x5_reduce (in-place)
I1108 14:33:52.249270 11054 net.cpp:150] Setting up inception_4e/relu_5x5_reduce
I1108 14:33:52.249286 11054 net.cpp:157] Top shape: 25 32 14 14 (156800)
I1108 14:33:52.249291 11054 net.cpp:165] Memory required for data: 1288938624
I1108 14:33:52.249296 11054 layer_factory.hpp:77] Creating layer inception_4e/5x5
I1108 14:33:52.249310 11054 net.cpp:100] Creating Layer inception_4e/5x5
I1108 14:33:52.249316 11054 net.cpp:434] inception_4e/5x5 <- inception_4e/5x5_reduce
I1108 14:33:52.249326 11054 net.cpp:408] inception_4e/5x5 -> inception_4e/5x5
I1108 14:33:52.251418 11054 net.cpp:150] Setting up inception_4e/5x5
I1108 14:33:52.251438 11054 net.cpp:157] Top shape: 25 128 14 14 (627200)
I1108 14:33:52.251444 11054 net.cpp:165] Memory required for data: 1291447424
I1108 14:33:52.251453 11054 layer_factory.hpp:77] Creating layer inception_4e/relu_5x5
I1108 14:33:52.251461 11054 net.cpp:100] Creating Layer inception_4e/relu_5x5
I1108 14:33:52.251467 11054 net.cpp:434] inception_4e/relu_5x5 <- inception_4e/5x5
I1108 14:33:52.251474 11054 net.cpp:395] inception_4e/relu_5x5 -> inception_4e/5x5 (in-place)
I1108 14:33:52.251957 11054 net.cpp:150] Setting up inception_4e/relu_5x5
I1108 14:33:52.251973 11054 net.cpp:157] Top shape: 25 128 14 14 (627200)
I1108 14:33:52.251978 11054 net.cpp:165] Memory required for data: 1293956224
I1108 14:33:52.251983 11054 layer_factory.hpp:77] Creating layer inception_4e/pool
I1108 14:33:52.251992 11054 net.cpp:100] Creating Layer inception_4e/pool
I1108 14:33:52.251998 11054 net.cpp:434] inception_4e/pool <- inception_4d/output_inception_4d/output_0_split_4
I1108 14:33:52.252008 11054 net.cpp:408] inception_4e/pool -> inception_4e/pool
I1108 14:33:52.252060 11054 net.cpp:150] Setting up inception_4e/pool
I1108 14:33:52.252070 11054 net.cpp:157] Top shape: 25 528 14 14 (2587200)
I1108 14:33:52.252074 11054 net.cpp:165] Memory required for data: 1304305024
I1108 14:33:52.252084 11054 layer_factory.hpp:77] Creating layer inception_4e/pool_proj
I1108 14:33:52.252105 11054 net.cpp:100] Creating Layer inception_4e/pool_proj
I1108 14:33:52.252111 11054 net.cpp:434] inception_4e/pool_proj <- inception_4e/pool
I1108 14:33:52.252120 11054 net.cpp:408] inception_4e/pool_proj -> inception_4e/pool_proj
I1108 14:33:52.254158 11054 net.cpp:150] Setting up inception_4e/pool_proj
I1108 14:33:52.254175 11054 net.cpp:157] Top shape: 25 128 14 14 (627200)
I1108 14:33:52.254181 11054 net.cpp:165] Memory required for data: 1306813824
I1108 14:33:52.254194 11054 layer_factory.hpp:77] Creating layer inception_4e/relu_pool_proj
I1108 14:33:52.254206 11054 net.cpp:100] Creating Layer inception_4e/relu_pool_proj
I1108 14:33:52.254212 11054 net.cpp:434] inception_4e/relu_pool_proj <- inception_4e/pool_proj
I1108 14:33:52.254220 11054 net.cpp:395] inception_4e/relu_pool_proj -> inception_4e/pool_proj (in-place)
I1108 14:33:52.254469 11054 net.cpp:150] Setting up inception_4e/relu_pool_proj
I1108 14:33:52.254484 11054 net.cpp:157] Top shape: 25 128 14 14 (627200)
I1108 14:33:52.254489 11054 net.cpp:165] Memory required for data: 1309322624
I1108 14:33:52.254494 11054 layer_factory.hpp:77] Creating layer inception_4e/output
I1108 14:33:52.254503 11054 net.cpp:100] Creating Layer inception_4e/output
I1108 14:33:52.254508 11054 net.cpp:434] inception_4e/output <- inception_4e/1x1
I1108 14:33:52.254513 11054 net.cpp:434] inception_4e/output <- inception_4e/3x3
I1108 14:33:52.254519 11054 net.cpp:434] inception_4e/output <- inception_4e/5x5
I1108 14:33:52.254525 11054 net.cpp:434] inception_4e/output <- inception_4e/pool_proj
I1108 14:33:52.254532 11054 net.cpp:408] inception_4e/output -> inception_4e/output
I1108 14:33:52.254567 11054 net.cpp:150] Setting up inception_4e/output
I1108 14:33:52.254576 11054 net.cpp:157] Top shape: 25 832 14 14 (4076800)
I1108 14:33:52.254580 11054 net.cpp:165] Memory required for data: 1325629824
I1108 14:33:52.254585 11054 layer_factory.hpp:77] Creating layer pool4/3x3_s2
I1108 14:33:52.254595 11054 net.cpp:100] Creating Layer pool4/3x3_s2
I1108 14:33:52.254601 11054 net.cpp:434] pool4/3x3_s2 <- inception_4e/output
I1108 14:33:52.254607 11054 net.cpp:408] pool4/3x3_s2 -> pool4/3x3_s2
I1108 14:33:52.254652 11054 net.cpp:150] Setting up pool4/3x3_s2
I1108 14:33:52.254662 11054 net.cpp:157] Top shape: 25 832 7 7 (1019200)
I1108 14:33:52.254667 11054 net.cpp:165] Memory required for data: 1329706624
I1108 14:33:52.254670 11054 layer_factory.hpp:77] Creating layer pool4/3x3_s2_pool4/3x3_s2_0_split
I1108 14:33:52.254678 11054 net.cpp:100] Creating Layer pool4/3x3_s2_pool4/3x3_s2_0_split
I1108 14:33:52.254683 11054 net.cpp:434] pool4/3x3_s2_pool4/3x3_s2_0_split <- pool4/3x3_s2
I1108 14:33:52.254695 11054 net.cpp:408] pool4/3x3_s2_pool4/3x3_s2_0_split -> pool4/3x3_s2_pool4/3x3_s2_0_split_0
I1108 14:33:52.254704 11054 net.cpp:408] pool4/3x3_s2_pool4/3x3_s2_0_split -> pool4/3x3_s2_pool4/3x3_s2_0_split_1
I1108 14:33:52.254712 11054 net.cpp:408] pool4/3x3_s2_pool4/3x3_s2_0_split -> pool4/3x3_s2_pool4/3x3_s2_0_split_2
I1108 14:33:52.254737 11054 net.cpp:408] pool4/3x3_s2_pool4/3x3_s2_0_split -> pool4/3x3_s2_pool4/3x3_s2_0_split_3
I1108 14:33:52.254803 11054 net.cpp:150] Setting up pool4/3x3_s2_pool4/3x3_s2_0_split
I1108 14:33:52.254812 11054 net.cpp:157] Top shape: 25 832 7 7 (1019200)
I1108 14:33:52.254817 11054 net.cpp:157] Top shape: 25 832 7 7 (1019200)
I1108 14:33:52.254825 11054 net.cpp:157] Top shape: 25 832 7 7 (1019200)
I1108 14:33:52.254832 11054 net.cpp:157] Top shape: 25 832 7 7 (1019200)
I1108 14:33:52.254835 11054 net.cpp:165] Memory required for data: 1346013824
I1108 14:33:52.254839 11054 layer_factory.hpp:77] Creating layer inception_5a/1x1
I1108 14:33:52.254850 11054 net.cpp:100] Creating Layer inception_5a/1x1
I1108 14:33:52.254855 11054 net.cpp:434] inception_5a/1x1 <- pool4/3x3_s2_pool4/3x3_s2_0_split_0
I1108 14:33:52.254865 11054 net.cpp:408] inception_5a/1x1 -> inception_5a/1x1
I1108 14:33:52.259645 11054 net.cpp:150] Setting up inception_5a/1x1
I1108 14:33:52.259670 11054 net.cpp:157] Top shape: 25 256 7 7 (313600)
I1108 14:33:52.259682 11054 net.cpp:165] Memory required for data: 1347268224
I1108 14:33:52.259691 11054 layer_factory.hpp:77] Creating layer inception_5a/relu_1x1
I1108 14:33:52.259703 11054 net.cpp:100] Creating Layer inception_5a/relu_1x1
I1108 14:33:52.259709 11054 net.cpp:434] inception_5a/relu_1x1 <- inception_5a/1x1
I1108 14:33:52.259716 11054 net.cpp:395] inception_5a/relu_1x1 -> inception_5a/1x1 (in-place)
I1108 14:33:52.260197 11054 net.cpp:150] Setting up inception_5a/relu_1x1
I1108 14:33:52.260215 11054 net.cpp:157] Top shape: 25 256 7 7 (313600)
I1108 14:33:52.260221 11054 net.cpp:165] Memory required for data: 1348522624
I1108 14:33:52.260226 11054 layer_factory.hpp:77] Creating layer inception_5a/3x3_reduce
I1108 14:33:52.260237 11054 net.cpp:100] Creating Layer inception_5a/3x3_reduce
I1108 14:33:52.260243 11054 net.cpp:434] inception_5a/3x3_reduce <- pool4/3x3_s2_pool4/3x3_s2_0_split_1
I1108 14:33:52.260254 11054 net.cpp:408] inception_5a/3x3_reduce -> inception_5a/3x3_reduce
I1108 14:33:52.266203 11054 net.cpp:150] Setting up inception_5a/3x3_reduce
I1108 14:33:52.266222 11054 net.cpp:157] Top shape: 25 160 7 7 (196000)
I1108 14:33:52.266227 11054 net.cpp:165] Memory required for data: 1349306624
I1108 14:33:52.266237 11054 layer_factory.hpp:77] Creating layer inception_5a/relu_3x3_reduce
I1108 14:33:52.266248 11054 net.cpp:100] Creating Layer inception_5a/relu_3x3_reduce
I1108 14:33:52.266255 11054 net.cpp:434] inception_5a/relu_3x3_reduce <- inception_5a/3x3_reduce
I1108 14:33:52.266263 11054 net.cpp:395] inception_5a/relu_3x3_reduce -> inception_5a/3x3_reduce (in-place)
I1108 14:33:52.266743 11054 net.cpp:150] Setting up inception_5a/relu_3x3_reduce
I1108 14:33:52.266762 11054 net.cpp:157] Top shape: 25 160 7 7 (196000)
I1108 14:33:52.266768 11054 net.cpp:165] Memory required for data: 1350090624
I1108 14:33:52.266773 11054 layer_factory.hpp:77] Creating layer inception_5a/3x3
I1108 14:33:52.266788 11054 net.cpp:100] Creating Layer inception_5a/3x3
I1108 14:33:52.266793 11054 net.cpp:434] inception_5a/3x3 <- inception_5a/3x3_reduce
I1108 14:33:52.266803 11054 net.cpp:408] inception_5a/3x3 -> inception_5a/3x3
I1108 14:33:52.274214 11054 net.cpp:150] Setting up inception_5a/3x3
I1108 14:33:52.274232 11054 net.cpp:157] Top shape: 25 320 7 7 (392000)
I1108 14:33:52.274238 11054 net.cpp:165] Memory required for data: 1351658624
I1108 14:33:52.274247 11054 layer_factory.hpp:77] Creating layer inception_5a/relu_3x3
I1108 14:33:52.274256 11054 net.cpp:100] Creating Layer inception_5a/relu_3x3
I1108 14:33:52.274262 11054 net.cpp:434] inception_5a/relu_3x3 <- inception_5a/3x3
I1108 14:33:52.274271 11054 net.cpp:395] inception_5a/relu_3x3 -> inception_5a/3x3 (in-place)
I1108 14:33:52.274531 11054 net.cpp:150] Setting up inception_5a/relu_3x3
I1108 14:33:52.274544 11054 net.cpp:157] Top shape: 25 320 7 7 (392000)
I1108 14:33:52.274549 11054 net.cpp:165] Memory required for data: 1353226624
I1108 14:33:52.274554 11054 layer_factory.hpp:77] Creating layer inception_5a/5x5_reduce
I1108 14:33:52.274569 11054 net.cpp:100] Creating Layer inception_5a/5x5_reduce
I1108 14:33:52.274574 11054 net.cpp:434] inception_5a/5x5_reduce <- pool4/3x3_s2_pool4/3x3_s2_0_split_2
I1108 14:33:52.274583 11054 net.cpp:408] inception_5a/5x5_reduce -> inception_5a/5x5_reduce
I1108 14:33:52.277953 11054 net.cpp:150] Setting up inception_5a/5x5_reduce
I1108 14:33:52.277972 11054 net.cpp:157] Top shape: 25 32 7 7 (39200)
I1108 14:33:52.277977 11054 net.cpp:165] Memory required for data: 1353383424
I1108 14:33:52.277987 11054 layer_factory.hpp:77] Creating layer inception_5a/relu_5x5_reduce
I1108 14:33:52.277995 11054 net.cpp:100] Creating Layer inception_5a/relu_5x5_reduce
I1108 14:33:52.278002 11054 net.cpp:434] inception_5a/relu_5x5_reduce <- inception_5a/5x5_reduce
I1108 14:33:52.278010 11054 net.cpp:395] inception_5a/relu_5x5_reduce -> inception_5a/5x5_reduce (in-place)
I1108 14:33:52.278638 11054 net.cpp:150] Setting up inception_5a/relu_5x5_reduce
I1108 14:33:52.278655 11054 net.cpp:157] Top shape: 25 32 7 7 (39200)
I1108 14:33:52.278671 11054 net.cpp:165] Memory required for data: 1353540224
I1108 14:33:52.278677 11054 layer_factory.hpp:77] Creating layer inception_5a/5x5
I1108 14:33:52.278692 11054 net.cpp:100] Creating Layer inception_5a/5x5
I1108 14:33:52.278698 11054 net.cpp:434] inception_5a/5x5 <- inception_5a/5x5_reduce
I1108 14:33:52.278709 11054 net.cpp:408] inception_5a/5x5 -> inception_5a/5x5
I1108 14:33:52.281000 11054 net.cpp:150] Setting up inception_5a/5x5
I1108 14:33:52.281018 11054 net.cpp:157] Top shape: 25 128 7 7 (156800)
I1108 14:33:52.281028 11054 net.cpp:165] Memory required for data: 1354167424
I1108 14:33:52.281036 11054 layer_factory.hpp:77] Creating layer inception_5a/relu_5x5
I1108 14:33:52.281044 11054 net.cpp:100] Creating Layer inception_5a/relu_5x5
I1108 14:33:52.281050 11054 net.cpp:434] inception_5a/relu_5x5 <- inception_5a/5x5
I1108 14:33:52.281057 11054 net.cpp:395] inception_5a/relu_5x5 -> inception_5a/5x5 (in-place)
I1108 14:33:52.281548 11054 net.cpp:150] Setting up inception_5a/relu_5x5
I1108 14:33:52.281566 11054 net.cpp:157] Top shape: 25 128 7 7 (156800)
I1108 14:33:52.281571 11054 net.cpp:165] Memory required for data: 1354794624
I1108 14:33:52.281577 11054 layer_factory.hpp:77] Creating layer inception_5a/pool
I1108 14:33:52.281585 11054 net.cpp:100] Creating Layer inception_5a/pool
I1108 14:33:52.281591 11054 net.cpp:434] inception_5a/pool <- pool4/3x3_s2_pool4/3x3_s2_0_split_3
I1108 14:33:52.281599 11054 net.cpp:408] inception_5a/pool -> inception_5a/pool
I1108 14:33:52.281656 11054 net.cpp:150] Setting up inception_5a/pool
I1108 14:33:52.281666 11054 net.cpp:157] Top shape: 25 832 7 7 (1019200)
I1108 14:33:52.281671 11054 net.cpp:165] Memory required for data: 1358871424
I1108 14:33:52.281675 11054 layer_factory.hpp:77] Creating layer inception_5a/pool_proj
I1108 14:33:52.281687 11054 net.cpp:100] Creating Layer inception_5a/pool_proj
I1108 14:33:52.281693 11054 net.cpp:434] inception_5a/pool_proj <- inception_5a/pool
I1108 14:33:52.281704 11054 net.cpp:408] inception_5a/pool_proj -> inception_5a/pool_proj
I1108 14:33:52.285393 11054 net.cpp:150] Setting up inception_5a/pool_proj
I1108 14:33:52.285413 11054 net.cpp:157] Top shape: 25 128 7 7 (156800)
I1108 14:33:52.285418 11054 net.cpp:165] Memory required for data: 1359498624
I1108 14:33:52.285428 11054 layer_factory.hpp:77] Creating layer inception_5a/relu_pool_proj
I1108 14:33:52.285436 11054 net.cpp:100] Creating Layer inception_5a/relu_pool_proj
I1108 14:33:52.285442 11054 net.cpp:434] inception_5a/relu_pool_proj <- inception_5a/pool_proj
I1108 14:33:52.285450 11054 net.cpp:395] inception_5a/relu_pool_proj -> inception_5a/pool_proj (in-place)
I1108 14:33:52.285704 11054 net.cpp:150] Setting up inception_5a/relu_pool_proj
I1108 14:33:52.285717 11054 net.cpp:157] Top shape: 25 128 7 7 (156800)
I1108 14:33:52.285722 11054 net.cpp:165] Memory required for data: 1360125824
I1108 14:33:52.285727 11054 layer_factory.hpp:77] Creating layer inception_5a/output
I1108 14:33:52.285737 11054 net.cpp:100] Creating Layer inception_5a/output
I1108 14:33:52.285742 11054 net.cpp:434] inception_5a/output <- inception_5a/1x1
I1108 14:33:52.285748 11054 net.cpp:434] inception_5a/output <- inception_5a/3x3
I1108 14:33:52.285753 11054 net.cpp:434] inception_5a/output <- inception_5a/5x5
I1108 14:33:52.285759 11054 net.cpp:434] inception_5a/output <- inception_5a/pool_proj
I1108 14:33:52.285766 11054 net.cpp:408] inception_5a/output -> inception_5a/output
I1108 14:33:52.285804 11054 net.cpp:150] Setting up inception_5a/output
I1108 14:33:52.285812 11054 net.cpp:157] Top shape: 25 832 7 7 (1019200)
I1108 14:33:52.285816 11054 net.cpp:165] Memory required for data: 1364202624
I1108 14:33:52.285821 11054 layer_factory.hpp:77] Creating layer inception_5a/output_inception_5a/output_0_split
I1108 14:33:52.285828 11054 net.cpp:100] Creating Layer inception_5a/output_inception_5a/output_0_split
I1108 14:33:52.285833 11054 net.cpp:434] inception_5a/output_inception_5a/output_0_split <- inception_5a/output
I1108 14:33:52.285847 11054 net.cpp:408] inception_5a/output_inception_5a/output_0_split -> inception_5a/output_inception_5a/output_0_split_0
I1108 14:33:52.285864 11054 net.cpp:408] inception_5a/output_inception_5a/output_0_split -> inception_5a/output_inception_5a/output_0_split_1
I1108 14:33:52.285873 11054 net.cpp:408] inception_5a/output_inception_5a/output_0_split -> inception_5a/output_inception_5a/output_0_split_2
I1108 14:33:52.285881 11054 net.cpp:408] inception_5a/output_inception_5a/output_0_split -> inception_5a/output_inception_5a/output_0_split_3
I1108 14:33:52.285953 11054 net.cpp:150] Setting up inception_5a/output_inception_5a/output_0_split
I1108 14:33:52.285964 11054 net.cpp:157] Top shape: 25 832 7 7 (1019200)
I1108 14:33:52.285969 11054 net.cpp:157] Top shape: 25 832 7 7 (1019200)
I1108 14:33:52.285974 11054 net.cpp:157] Top shape: 25 832 7 7 (1019200)
I1108 14:33:52.285979 11054 net.cpp:157] Top shape: 25 832 7 7 (1019200)
I1108 14:33:52.285984 11054 net.cpp:165] Memory required for data: 1380509824
I1108 14:33:52.285989 11054 layer_factory.hpp:77] Creating layer inception_5b/1x1
I1108 14:33:52.286000 11054 net.cpp:100] Creating Layer inception_5b/1x1
I1108 14:33:52.286005 11054 net.cpp:434] inception_5b/1x1 <- inception_5a/output_inception_5a/output_0_split_0
I1108 14:33:52.286013 11054 net.cpp:408] inception_5b/1x1 -> inception_5b/1x1
I1108 14:33:52.291529 11054 net.cpp:150] Setting up inception_5b/1x1
I1108 14:33:52.291549 11054 net.cpp:157] Top shape: 25 384 7 7 (470400)
I1108 14:33:52.291555 11054 net.cpp:165] Memory required for data: 1382391424
I1108 14:33:52.291565 11054 layer_factory.hpp:77] Creating layer inception_5b/relu_1x1
I1108 14:33:52.291574 11054 net.cpp:100] Creating Layer inception_5b/relu_1x1
I1108 14:33:52.291580 11054 net.cpp:434] inception_5b/relu_1x1 <- inception_5b/1x1
I1108 14:33:52.291587 11054 net.cpp:395] inception_5b/relu_1x1 -> inception_5b/1x1 (in-place)
I1108 14:33:52.292052 11054 net.cpp:150] Setting up inception_5b/relu_1x1
I1108 14:33:52.292068 11054 net.cpp:157] Top shape: 25 384 7 7 (470400)
I1108 14:33:52.292073 11054 net.cpp:165] Memory required for data: 1384273024
I1108 14:33:52.292079 11054 layer_factory.hpp:77] Creating layer inception_5b/3x3_reduce
I1108 14:33:52.292090 11054 net.cpp:100] Creating Layer inception_5b/3x3_reduce
I1108 14:33:52.292098 11054 net.cpp:434] inception_5b/3x3_reduce <- inception_5a/output_inception_5a/output_0_split_1
I1108 14:33:52.292106 11054 net.cpp:408] inception_5b/3x3_reduce -> inception_5b/3x3_reduce
I1108 14:33:52.295789 11054 net.cpp:150] Setting up inception_5b/3x3_reduce
I1108 14:33:52.295807 11054 net.cpp:157] Top shape: 25 192 7 7 (235200)
I1108 14:33:52.295814 11054 net.cpp:165] Memory required for data: 1385213824
I1108 14:33:52.295822 11054 layer_factory.hpp:77] Creating layer inception_5b/relu_3x3_reduce
I1108 14:33:52.295832 11054 net.cpp:100] Creating Layer inception_5b/relu_3x3_reduce
I1108 14:33:52.295840 11054 net.cpp:434] inception_5b/relu_3x3_reduce <- inception_5b/3x3_reduce
I1108 14:33:52.295846 11054 net.cpp:395] inception_5b/relu_3x3_reduce -> inception_5b/3x3_reduce (in-place)
I1108 14:33:52.296332 11054 net.cpp:150] Setting up inception_5b/relu_3x3_reduce
I1108 14:33:52.296349 11054 net.cpp:157] Top shape: 25 192 7 7 (235200)
I1108 14:33:52.296353 11054 net.cpp:165] Memory required for data: 1386154624
I1108 14:33:52.296358 11054 layer_factory.hpp:77] Creating layer inception_5b/3x3
I1108 14:33:52.296373 11054 net.cpp:100] Creating Layer inception_5b/3x3
I1108 14:33:52.296380 11054 net.cpp:434] inception_5b/3x3 <- inception_5b/3x3_reduce
I1108 14:33:52.296391 11054 net.cpp:408] inception_5b/3x3 -> inception_5b/3x3
I1108 14:33:52.305785 11054 net.cpp:150] Setting up inception_5b/3x3
I1108 14:33:52.305804 11054 net.cpp:157] Top shape: 25 384 7 7 (470400)
I1108 14:33:52.305809 11054 net.cpp:165] Memory required for data: 1388036224
I1108 14:33:52.305819 11054 layer_factory.hpp:77] Creating layer inception_5b/relu_3x3
I1108 14:33:52.305827 11054 net.cpp:100] Creating Layer inception_5b/relu_3x3
I1108 14:33:52.305837 11054 net.cpp:434] inception_5b/relu_3x3 <- inception_5b/3x3
I1108 14:33:52.305855 11054 net.cpp:395] inception_5b/relu_3x3 -> inception_5b/3x3 (in-place)
I1108 14:33:52.306112 11054 net.cpp:150] Setting up inception_5b/relu_3x3
I1108 14:33:52.306126 11054 net.cpp:157] Top shape: 25 384 7 7 (470400)
I1108 14:33:52.306130 11054 net.cpp:165] Memory required for data: 1389917824
I1108 14:33:52.306135 11054 layer_factory.hpp:77] Creating layer inception_5b/5x5_reduce
I1108 14:33:52.306149 11054 net.cpp:100] Creating Layer inception_5b/5x5_reduce
I1108 14:33:52.306154 11054 net.cpp:434] inception_5b/5x5_reduce <- inception_5a/output_inception_5a/output_0_split_2
I1108 14:33:52.306164 11054 net.cpp:408] inception_5b/5x5_reduce -> inception_5b/5x5_reduce
I1108 14:33:52.308046 11054 net.cpp:150] Setting up inception_5b/5x5_reduce
I1108 14:33:52.308064 11054 net.cpp:157] Top shape: 25 48 7 7 (58800)
I1108 14:33:52.308070 11054 net.cpp:165] Memory required for data: 1390153024
I1108 14:33:52.308079 11054 layer_factory.hpp:77] Creating layer inception_5b/relu_5x5_reduce
I1108 14:33:52.308089 11054 net.cpp:100] Creating Layer inception_5b/relu_5x5_reduce
I1108 14:33:52.308095 11054 net.cpp:434] inception_5b/relu_5x5_reduce <- inception_5b/5x5_reduce
I1108 14:33:52.308102 11054 net.cpp:395] inception_5b/relu_5x5_reduce -> inception_5b/5x5_reduce (in-place)
I1108 14:33:52.309658 11054 net.cpp:150] Setting up inception_5b/relu_5x5_reduce
I1108 14:33:52.309675 11054 net.cpp:157] Top shape: 25 48 7 7 (58800)
I1108 14:33:52.309681 11054 net.cpp:165] Memory required for data: 1390388224
I1108 14:33:52.309686 11054 layer_factory.hpp:77] Creating layer inception_5b/5x5
I1108 14:33:52.309700 11054 net.cpp:100] Creating Layer inception_5b/5x5
I1108 14:33:52.309707 11054 net.cpp:434] inception_5b/5x5 <- inception_5b/5x5_reduce
I1108 14:33:52.309716 11054 net.cpp:408] inception_5b/5x5 -> inception_5b/5x5
I1108 14:33:52.312203 11054 net.cpp:150] Setting up inception_5b/5x5
I1108 14:33:52.312222 11054 net.cpp:157] Top shape: 25 128 7 7 (156800)
I1108 14:33:52.312227 11054 net.cpp:165] Memory required for data: 1391015424
I1108 14:33:52.312235 11054 layer_factory.hpp:77] Creating layer inception_5b/relu_5x5
I1108 14:33:52.312244 11054 net.cpp:100] Creating Layer inception_5b/relu_5x5
I1108 14:33:52.312250 11054 net.cpp:434] inception_5b/relu_5x5 <- inception_5b/5x5
I1108 14:33:52.312260 11054 net.cpp:395] inception_5b/relu_5x5 -> inception_5b/5x5 (in-place)
I1108 14:33:52.312758 11054 net.cpp:150] Setting up inception_5b/relu_5x5
I1108 14:33:52.312775 11054 net.cpp:157] Top shape: 25 128 7 7 (156800)
I1108 14:33:52.312780 11054 net.cpp:165] Memory required for data: 1391642624
I1108 14:33:52.312785 11054 layer_factory.hpp:77] Creating layer inception_5b/pool
I1108 14:33:52.312793 11054 net.cpp:100] Creating Layer inception_5b/pool
I1108 14:33:52.312800 11054 net.cpp:434] inception_5b/pool <- inception_5a/output_inception_5a/output_0_split_3
I1108 14:33:52.312810 11054 net.cpp:408] inception_5b/pool -> inception_5b/pool
I1108 14:33:52.312867 11054 net.cpp:150] Setting up inception_5b/pool
I1108 14:33:52.312877 11054 net.cpp:157] Top shape: 25 832 7 7 (1019200)
I1108 14:33:52.312881 11054 net.cpp:165] Memory required for data: 1395719424
I1108 14:33:52.312886 11054 layer_factory.hpp:77] Creating layer inception_5b/pool_proj
I1108 14:33:52.312901 11054 net.cpp:100] Creating Layer inception_5b/pool_proj
I1108 14:33:52.312907 11054 net.cpp:434] inception_5b/pool_proj <- inception_5b/pool
I1108 14:33:52.312916 11054 net.cpp:408] inception_5b/pool_proj -> inception_5b/pool_proj
I1108 14:33:52.349124 11054 net.cpp:150] Setting up inception_5b/pool_proj
I1108 14:33:52.349143 11054 net.cpp:157] Top shape: 25 128 7 7 (156800)
I1108 14:33:52.349149 11054 net.cpp:165] Memory required for data: 1396346624
I1108 14:33:52.349159 11054 layer_factory.hpp:77] Creating layer inception_5b/relu_pool_proj
I1108 14:33:52.349167 11054 net.cpp:100] Creating Layer inception_5b/relu_pool_proj
I1108 14:33:52.349174 11054 net.cpp:434] inception_5b/relu_pool_proj <- inception_5b/pool_proj
I1108 14:33:52.349187 11054 net.cpp:395] inception_5b/relu_pool_proj -> inception_5b/pool_proj (in-place)
I1108 14:33:52.349457 11054 net.cpp:150] Setting up inception_5b/relu_pool_proj
I1108 14:33:52.349469 11054 net.cpp:157] Top shape: 25 128 7 7 (156800)
I1108 14:33:52.349476 11054 net.cpp:165] Memory required for data: 1396973824
I1108 14:33:52.349481 11054 layer_factory.hpp:77] Creating layer inception_5b/output
I1108 14:33:52.349489 11054 net.cpp:100] Creating Layer inception_5b/output
I1108 14:33:52.349495 11054 net.cpp:434] inception_5b/output <- inception_5b/1x1
I1108 14:33:52.349503 11054 net.cpp:434] inception_5b/output <- inception_5b/3x3
I1108 14:33:52.349509 11054 net.cpp:434] inception_5b/output <- inception_5b/5x5
I1108 14:33:52.349514 11054 net.cpp:434] inception_5b/output <- inception_5b/pool_proj
I1108 14:33:52.349520 11054 net.cpp:408] inception_5b/output -> inception_5b/output
I1108 14:33:52.349558 11054 net.cpp:150] Setting up inception_5b/output
I1108 14:33:52.349567 11054 net.cpp:157] Top shape: 25 1024 7 7 (1254400)
I1108 14:33:52.349571 11054 net.cpp:165] Memory required for data: 1401991424
I1108 14:33:52.349576 11054 layer_factory.hpp:77] Creating layer pool5/7x7_s1
I1108 14:33:52.349583 11054 net.cpp:100] Creating Layer pool5/7x7_s1
I1108 14:33:52.349588 11054 net.cpp:434] pool5/7x7_s1 <- inception_5b/output
I1108 14:33:52.349597 11054 net.cpp:408] pool5/7x7_s1 -> pool5/7x7_s1
I1108 14:33:52.350109 11054 net.cpp:150] Setting up pool5/7x7_s1
I1108 14:33:52.350126 11054 net.cpp:157] Top shape: 25 1024 1 1 (25600)
I1108 14:33:52.350131 11054 net.cpp:165] Memory required for data: 1402093824
I1108 14:33:52.350136 11054 layer_factory.hpp:77] Creating layer pool5/drop_7x7_s1
I1108 14:33:52.350147 11054 net.cpp:100] Creating Layer pool5/drop_7x7_s1
I1108 14:33:52.350152 11054 net.cpp:434] pool5/drop_7x7_s1 <- pool5/7x7_s1
I1108 14:33:52.350159 11054 net.cpp:395] pool5/drop_7x7_s1 -> pool5/7x7_s1 (in-place)
I1108 14:33:52.350196 11054 net.cpp:150] Setting up pool5/drop_7x7_s1
I1108 14:33:52.350206 11054 net.cpp:157] Top shape: 25 1024 1 1 (25600)
I1108 14:33:52.350210 11054 net.cpp:165] Memory required for data: 1402196224
I1108 14:33:52.350215 11054 layer_factory.hpp:77] Creating layer loss3/classifier
I1108 14:33:52.350224 11054 net.cpp:100] Creating Layer loss3/classifier
I1108 14:33:52.350229 11054 net.cpp:434] loss3/classifier <- pool5/7x7_s1
I1108 14:33:52.350239 11054 net.cpp:408] loss3/classifier -> loss3/classifier
I1108 14:33:52.351184 11054 net.cpp:150] Setting up loss3/classifier
I1108 14:33:52.351199 11054 net.cpp:157] Top shape: 25 100 (2500)
I1108 14:33:52.351204 11054 net.cpp:165] Memory required for data: 1402206224
I1108 14:33:52.351212 11054 layer_factory.hpp:77] Creating layer loss3/classifier_loss3/classifier_0_split
I1108 14:33:52.351220 11054 net.cpp:100] Creating Layer loss3/classifier_loss3/classifier_0_split
I1108 14:33:52.351227 11054 net.cpp:434] loss3/classifier_loss3/classifier_0_split <- loss3/classifier
I1108 14:33:52.351233 11054 net.cpp:408] loss3/classifier_loss3/classifier_0_split -> loss3/classifier_loss3/classifier_0_split_0
I1108 14:33:52.351244 11054 net.cpp:408] loss3/classifier_loss3/classifier_0_split -> loss3/classifier_loss3/classifier_0_split_1
I1108 14:33:52.351253 11054 net.cpp:408] loss3/classifier_loss3/classifier_0_split -> loss3/classifier_loss3/classifier_0_split_2
I1108 14:33:52.351318 11054 net.cpp:150] Setting up loss3/classifier_loss3/classifier_0_split
I1108 14:33:52.351327 11054 net.cpp:157] Top shape: 25 100 (2500)
I1108 14:33:52.351332 11054 net.cpp:157] Top shape: 25 100 (2500)
I1108 14:33:52.351337 11054 net.cpp:157] Top shape: 25 100 (2500)
I1108 14:33:52.351341 11054 net.cpp:165] Memory required for data: 1402236224
I1108 14:33:52.351346 11054 layer_factory.hpp:77] Creating layer loss3/loss3
I1108 14:33:52.351356 11054 net.cpp:100] Creating Layer loss3/loss3
I1108 14:33:52.351361 11054 net.cpp:434] loss3/loss3 <- loss3/classifier_loss3/classifier_0_split_0
I1108 14:33:52.351368 11054 net.cpp:434] loss3/loss3 <- label_data_1_split_6
…
